gan_modals/timegradGANpth/discriminator.pth (torch, 619720 bytes, 25 tensors)

cnn.0.weight f4 [128, 6, 3]
00000000: c315 7cbe b620 62be a587 473d 45fc 1dbd
00000010: 612b 783e f713 4ebe fa36 393e eb90 a43d
00000020: ef3d d5bd 7feb 433e a773 0f3e 979f e9bd
00000030: 766b 9dbd 66ed d5bc 3107 153e 398c 2b3c
00000040: a7d7 cc3a 7152 af3b fe7a 36be 776f 063e
00000050: 4fe2 45be aa92 573e 0efb 32bc 4981 fdbb
00000060: 9168 33be 1135 debc bf86 7cbe e6df eb3d
00000070: d9eb f23d 84b9 46bd 974d 793e a427 2a3e
00000080: 1723 1ebe fb11 053e fc43 56be bd36 543d
00000090: eb9b b53c a3c6 9f3c ffe8 9f3d 4027 5fbe
000000a0: c1ef 2e3e fbd0 31be 2251 9dbd 69dd 803e
000000b0: 0896 49be 8a5f 7c3e cf48 34bd c37a d2bd
000000c0: 2258 a43d ef26 40be dfc3 833e d501 1f3e
000000d0: acf6 1d3e 3102 0d3c 9442 42be 041a 3cbd
000000e0: d8b2 843d 5cf8 95bd d092 59be 961b 2bbd
000000f0: bc09 a53c afa3 18be b905 dbbd f098 443d
00000100: 676d 49be ab96 59be 3adb 12be 56c7 31be
00000110: 6858 113e f911 31be b60e 73bc 1062 833d
00000120: 1db2 b8bd 73b4 cabd 62dd ddbd b5f6 3a3e
00000130: b9fc f9bd a3c5 893c 0e27 5bbe c61b 69be
00000140: 7346 e93c fb19 bebd 4362 e7bd ad47 3ebe
00000150: 26fb 273e 6789 e5bd 1199 4abe 7f39 713e
00000160: 0119 28bd 1fa6 373e 3676 133e e32e 863d
00000170: 9cbc afbd 2e2f 6c3d bcd6 a5bd 2e16 50be
00000180: c6de 333e 7ed6 1abd f7bc 2fbd ac2d 333e
00000190: 05ca febd 0c4b 33be e678 20be 652a b33d
000001a0: 1dfa 223e 0b9a 913c 88b5 713d 7d0b 1abe
000001b0: d0dc 8d3e 7fe4 5d3e 016e 60be e896 c03c
000001c0: 40f8 803e 2693 573c b72d 943e 8da8 ea3d
000001d0: a4b7 13be 029b 89bd d683 113e 8a1c efbb
000001e0: ab10 abbc 9a1f 453e f10c 473d 0c9a 67bd
000001f0: b820 71bd 5073 78bd 94d4 e2bd f36f f3bd
00000200: e7d4 1dbe 3100 0d3e f783 0bbe a172 ccbd
00000210: d70e f8bd b810 4b3e fe57 bcbd 9599 303e
00000220: 41a4 6cbe 7697 4bbc 8090 21bd 34f4 50be
00000230: 6dbf 3bbe 302a 31bd ddf9 e13d 6fbe 613e
00000240: 358f f0ba ba4d 21be 0d6f eabd a762 9abc
00000250: d8d9 4a3e 8e9d 1fbe 2a5e 2b3e 01bf bc3d
00000260: d180 6fbe fa82 03be 079d 063d c267 a43d
00000270: cd72 c73a fcbb 503c 39fd 643e 987c f43b
00000280: c8ac b13b acaa 7b3b a41a fa3c 129a 363e
00000290: 1ca9 5dbe af1e d5bd 809b 2bbd 501c 76be
000002a0: c2e1 fb3c 12de 4bbe a49d 64bc ee33 e53b
000002b0: d454 0f3e ff28 6bbe 9a1b fabd 385c 8c3d
000002c0: 4834 55be c6f2 613e b025 3dbe 491e 57bd
000002d0: 0979 4ebe 974a a53b 81b4 0fbd 6d8e 14be
000002e0: bb0d 30be 0db4 463d 3c54 873d 7a2a b8bc
000002f0: 6746 7bbb 693f 2b3d b491 323e d17c 43be
00000300: a4dd 653d fbb1 ec3c 8737 8b3e 498a a6bd
00000310: 0477 4e3e 41b5 54be 7e7f 02bd 10a2 77be
00000320: cce2 dbbd 9784 c93d a8bb 9a3d 656f 73be
00000330: 356e df3d 9c11 393e b7c1 4e3c 47ad a73d
00000340: 0a1e 623e 6530 aa3d ed6e 69be bbdb 3a3e
00000350: 0842 2abe c317 873b 89a1 23bc 9c83 293c
00000360: 044f 733d 37a0 f33c e62a 7dbe ff15 e83c
00000370: e807 1cbe ada5 00be 1575 d3bd 2b6c 233e
00000380: aa03 3bbe 8cf9 1fbe 77ae 31bd 3ae0 973d
00000390: d244 403e e797 9cbd 3514 25be 5d33 2c3e
000003a0: 5437 56bd f861 4d3e ac58 393d 3727 5dbe
000003b0: e7f3 77be fdb5 65be 7a85 b1bd 5644 543b
000003c0: a2a9 38be 9218 50be b47c 133e b9ac debd
000003d0: b50e 1dbd 5254 1c3e 214c 44be 1cb2 40bd
000003e0: 306b 67be c98b 333e ebda f23d 1e2c 123e
000003f0: 3219 a1bd 25ce 6b3e 4676 923d 255e 0cbe
-0.24617676 -0.2208279 0.048713345 -0.03857066 0.24235298 -0.20124803 0.18087378 0.080354534
-0.104122035 0.19132803 0.14008962 -0.114073925 -0.07686512 -0.026114177 0.14553525 0.010470443
0.0015628234 0.005350404 -0.17820355 0.13128458 -0.19324611 0.21052042 -0.010924114 -0.0077363593
-0.17520358 -0.027124913 -0.24660777 0.115173146 0.118613906 -0.048516765 0.24346004 0.16616684
-0.15443073 0.1299514 -0.20924371 0.051810015 0.022169074 0.019503897 0.07808112 -0.21792316
0.17083646 -0.17364876 -0.076814905 0.25168923 -0.19686139 0.2464582 -0.04401475 -0.10277321
0.080246225 -0.18764852 0.25735375 0.15528043 0.15426129 0.0086064795 -0.1897071 -0.045923248
0.06479424 -0.073227614 -0.21247411 -0.041774355 0.020146243 -0.1490619 -0.10694451 0.047997415
-0.1967064 -0.21248882 -0.14341441 -0.17361197 0.1419388 -0.17292012 -0.01483505 0.06415188
-0.090183474 -0.09897699 -0.10833241 0.18258174 -0.12206406 0.016817873 -0.21401617 -0.22764501
0.028475976 -0.09282299 -0.11298039 -0.1858203 0.164044 -0.11207848 -0.19784953 0.2355709
-0.04103947 0.17934464 0.14400563 0.06551912 -0.08580896 0.05766218 -0.08097598 -0.20320961
0.1756545 -0.037802212 -0.04290482 0.17497891 -0.12440876 -0.17509097 -0.15671119 0.087483205
0.15915723 0.017773649 0.059011012 -0.15043445 0.2770753 0.21669196 -0.21916963 0.023509458
0.251894 0.0131576415 0.28941128 0.1145793 -0.14425522 -0.067190185 0.14210448 -0.0072971033
-0.020881971 0.19250336 0.048596326 -0.056543395 -0.058869094 -0.060656846 -0.11075702 -0.11886587
-0.15413247 0.13769604 -0.1362456 -0.09982801 -0.121122055 0.19830596 -0.09196471 0.17246087
-0.23109533 -0.012426248 -0.039444447 -0.20405656 -0.18334742 -0.043253124 0.11033986 0.22045301
-0.0018353226 -0.15752307 -0.114469625 -0.01884587 0.19809663 -0.15587446 0.1673514 0.092161186
-0.23388983 -0.12842932 0.032864597 0.08027603 0.0015216708 0.0127401315 0.22362222 0.007461142
0.0054222085 0.003840129 0.030530281 0.1783221 -0.21646541 -0.10406243 -0.041896343 -0.24034238
0.030747298 -0.19908932 -0.0139536 0.006994716 0.13997203 -0.22964858 -0.12212296 0.06853527
-0.20820725 0.22065267 -0.18471408 -0.052519117 -0.20163359 0.005044292 -0.03508425 -0.14507456
-0.17192738 0.048511554 0.06607863 -0.022481192 -0.0038341524 0.04180852 0.17438394 -0.19090582
0.056119576 0.028893461 0.27190802 -0.081318446 0.20162588 -0.20772268 -0.031859867 -0.24182916
-0.107366174 0.09839743 0.07555324 -0.23772962 0.10909692 0.18073124 0.012619427 0.08187347
0.22081771 0.08310012 -0.22796221 0.18247883 -0.16626751 0.0041227057 -0.009987243 0.0103463195
0.059401527 0.029739482 -0.24723396 0.028330801 -0.15237391 -0.125632 -0.10325066 0.15959232
-0.18263116 -0.15622538 -0.043379273 0.07415815 0.18776253 -0.076461606 -0.1612099 0.16816469
-0.05229886 0.20056903 0.04525058 -0.2159699 -0.24214135 -0.22432704 -0.08668037 0.0032389364
-0.1803346 -0.20321873 0.14403039 -0.10872788 -0.038344104 0.1526654 -0.19169666 -0.04704486
-0.22599483 0.17533793 0.118581615 0.14274642 -0.07866134 0.23027857 0.07151465 -0.13707788

cnn.0.bias f4 [128]
00000000: 85be 9f3d b782 b1bd 878b b73b 0702 abbd
00000010: 5892 693e 3ab3 b9bc 29a1 6a3e 02df eb3d
00000020: 3e77 c53d 629d 16be 4dd8 53be bf7b 79be
00000030: 7b8a a0bd 2d3d c23d 1a9f 0d3e b007 3abe
00000040: 22f6 44be dbd2 fe3d 4548 533d a10e 2abe
00000050: 35bd 0cbe d3db e6bd b4a4 5b3e f48b 33be
00000060: b0a4 4ebe acc6 0fbd 6226 5fbe 40d1 03be
00000070: cd02 06bd 3065 293e c6ec c9bd 6b3a b13d
00000080: 4458 093e 9ef0 583e 8d26 51bb ce9f c23b
00000090: 67fa be3d 143f 343e 9666 09bc 3403 b93c
000000a0: f8ea 733e c147 88bd b582 6dbe 84b9 43be
000000b0: 0c02 88bd 09f6 14be ba19 0ebe 1768 ae3c
000000c0: 0031 63bc c72b 933d 284c 133e e1bc 4cbe
000000d0: 83af 343e 6ca6 9b3d 6ecd 3cbd 3dd7 d93d
000000e0: d1ad ccbd 2c61 2fbc 72d3 743d aaaa 323e
000000f0: e31b 113e 7a3f aabd fa41 0cbe 17ca ae3b
00000100: b933 723e 2311 1f3e 71f6 cebd 1f70 483e
00000110: a69b dbbd fb52 863d 15d2 bd3d 80c6 6abe
00000120: b3af c1bc 03ba 4ebe ad63 c23d addc 3ebd
00000130: 1d6e 04be eb49 573d 28f7 98bd fe97 3bbd
00000140: 1c14 4fbe 1159 8d3d 421b e43d 979d 18be
00000150: ace9 0bbe ba93 573e c365 033e 7ef0 39be
00000160: 487d 353e c6b3 9dbd 4cb2 20be dd2d 4a3c
00000170: 7b39 083e 1d37 c93c ccbb efbc ed15 0dbd
00000180: ced2 033e 4035 4f3e 9286 103e 1c20 42be
00000190: 6f38 1dbe 0177 9bbe 9751 3a3c 43c6 993d
000001a0: 789a 62be ad85 fcbd 7bbc 643e 753d 10be
000001b0: 55b8 2fbe 2a0e db3b 93ee d43d 45a9 473e
000001c0: a490 48be c689 fbbd d242 493e f6ac ffbd
000001d0: 8790 83bc b8ed 12bd 7412 353e b871 3cbe
000001e0: 6757 df3d c386 d3bd 272b 30be 8f37 b4bc
000001f0: bee9 8f3d cbbf 24be 71b9 1bbe eae5 403d
0.078000106 -0.0866751 0.0056013498 -0.08349996 0.22809732 -0.02266847 0.2291304 0.11517145
0.09641884 -0.14708474 -0.20687981 -0.24363612 -0.07838913 0.094843246 0.13830224 -0.18166995
-0.19234517 0.12442561 0.051582593 -0.16607143 -0.13744052 -0.11272397 0.21449548 -0.17533857
-0.20180011 -0.035101578 -0.21791986 -0.12872791 -0.032717515 0.16542506 -0.09859614 0.086537205
0.13412577 0.21185538 -0.0031913847 0.0059394604 0.09325104 0.17602187 -0.008386275 0.022584535
0.23820102 -0.06654311 -0.23194392 -0.19113737 -0.066410154 -0.1454698 -0.13877001 0.021289868
-0.013866663 0.07186084 0.1438452 -0.19993927 0.17645077 0.07600102 -0.04609435 0.106367566
-0.0999409 -0.01070432 0.059771962 0.17447916 0.14170794 -0.083128884 -0.13697043 0.0053341496
0.23652543 0.15533881 -0.10105599 0.19574021 -0.10723047 0.06558796 0.092685856 -0.22927284
-0.02364335 -0.20188145 0.09491668 -0.04659717 -0.1293263 0.052560728 -0.07469016 -0.045799248
-0.20222515 0.06901754 0.111380115 -0.14903866 -0.13663357 0.21052447 0.12831788 -0.18158147
0.17723572 -0.07700305 -0.15693015 0.012340036 0.13303177 0.024562413 -0.029264353 -0.03444474
0.12873384 0.20235157 0.14113835 -0.18957561 -0.15353559 -0.3036423 0.011371992 0.075085185
-0.22129238 -0.12330184 0.22337525 -0.14085944 -0.17160161 0.006685038 0.10397067 0.19498165
-0.19586426 -0.122821376 0.19654396 -0.124841616 -0.016060127 -0.035871238 0.1768282 -0.18402755
0.109053425 -0.10328438 -0.17203961 -0.021999149 0.07027005 -0.16088788 -0.15207459 0.047094263

cnn.1.weight f4 [128]
00000000: afb5 843f e7a4 863f 81a9 753f 7c69 793f
00000010: 29ac 783f 5af4 853f d51a 753f 7d46 753f
00000020: 9cdd 843f 7322 6e3f d9bc 723f 81ff 843f
00000030: b939 6e3f b847 793f f8c0 6a3f 5def 703f
00000040: 7f63 6e3f fdfc 823f 6a84 823f 644d 833f
00000050: ba63 733f 23b1 723f eff8 753f 8403 803f
00000060: d57e 733f bf64 7c3f 5b0e 8a3f c051 7b3f
00000070: 9784 733f a345 813f 9233 783f 3e1b 793f
00000080: 2dc0 763f 28ae 923f ba35 773f 3187 793f
00000090: dad0 7b3f 1ec4 7b3f e0a9 7b3f 8cfc 7c3f
000000a0: b1a6 813f 744a 7c3f 517d 763f 9cc5 773f
000000b0: 205a 803f 45f4 8d3f 4bbe 803f b17a 853f
000000c0: 2bc5 7b3f 4f9a 7c3f b698 703f fb49 873f
000000d0: 43b9 743f 8c55 703f af0e 823f ef48 843f
000000e0: 1198 863f ac3e 7d3f f781 783f ee41 a13f
000000f0: d739 883f 0b0b 813f 6026 843f 455b 733f
00000100: 6c8e 763f 054e 7d3f d7cd 763f 4a9f 763f
00000110: f6d6 893f 6441 793f d792 8c3f 0958 783f
00000120: 7df4 713f c429 793f faeb 763f 5c86 773f
00000130: cc43 7e3f 0c2c 783f b086 8e3f d156 783f
00000140: c372 793f f6cf 7c3f 8235 793f 5dfa 803f
00000150: 6437 7e3f 07d9 723f 71f7 783f 21f6 7a3f
00000160: a438 713f e594 7d3f c2bf 753f 0b3a 773f
00000170: 2408 8b3f 8744 813f d706 743f f702 7f3f
00000180: d2f2 743f 2e5b 783f adb8 783f 3ac1 783f
00000190: 8ee2 7c3f 2b61 863f 0a3b 723f 2cff 703f
000001a0: 382d 7c3f 842c 813f 174f 8b3f 8fc5 893f
000001b0: f553 873f 0c08 793f 6285 853f d304 723f
000001c0: 1ade 8e3f 4a2c 7b3f b46a 753f 32dd 7b3f
000001d0: 40d9 883f 74a3 743f 1663 7c3f 0629 703f
000001e0: 7670 7b3f 9c57 723f 0f56 7e3f f58f 8e3f
000001f0: a4e7 873f cd34 783f 4185 8b3f 1010 6e3f
1.0367945 1.0519074 0.9596177 0.9742658 0.97137696 1.0465195 0.9574407 0.9581068
1.038013 0.93021315 0.9481941 1.0390474 0.9305683 0.9737506 0.91700697 0.9411524
0.9312057 1.0233456 1.019666 1.0257993 0.95074046 0.9480154 0.9608297 1.0001073
0.95115405 0.98591226 1.0785631 0.98171616 0.9512419 1.0099376 0.9695369 0.97307193
0.96386987 1.1459398 0.96566355 0.9747191 0.9836556 0.98346126 0.98306084 0.98822856
1.0128995 0.98551106 0.9628497 0.967859 1.0027504 1.109017 1.0058073 1.0428067
0.9834773 0.98672956 0.9398302 1.0569452 0.95595187 0.93880534 1.0160731 1.0334758
1.0515157 0.98923755 0.9707331 1.2598245 1.0642651 1.0081495 1.0324211 0.9506114
0.9631107 0.98947173 0.96407837 0.96336806 1.0768726 0.97365403 1.0982312 0.9700933
0.94513685 0.97329354 0.9645382 0.9668939 0.993222 0.9694221 1.1134853 0.9700747
0.9744074 0.98754823 0.9734727 1.0076405 0.9930327 0.9486241 0.97252566 0.9803181
0.9422705 0.9905532 0.95995724 0.9657294 1.0861859 1.0099038 0.95322937 0.996139
0.95683014 0.9701413 0.9715679 0.9716984 0.98783195 1.0498403 0.94621336 0.9413936
0.985065 1.009171 1.0883511 1.0763415 1.0572497 0.97277904 1.043133 0.9453861
1.116153 0.98114455 0.9586594 0.9838439 1.06913 0.9556191 0.98588693 0.93812597
0.98218477 0.9466493 0.99350065 1.1137682 1.0617566 0.9695557 1.0900041 0.9299326

cnn.1.bias f4 [128]
00000000: 3fd1 f4bd deaa b93d 2ac3 1cbe 6596 743d
00000010: bd1b 3dbd 306d 503d dc5c adbd 3d8f 70bd
00000020: 6d6f 83bd 207e 3bbd 45bb 533d 07dd bcbd
00000030: dd34 cfbd 8d11 56bd ee9f 32bd a7ef f5bb
00000040: f4ef 27be dde8 a53b 7efb 0abe 2281 0c3e
00000050: 0cbd 7a3d f35a 133c ec26 5abe 532d 353d
00000060: 3bde 4abd fb75 f5ba 7cfb b43b eaf4 4bbe
00000070: 0a01 82be 9dd7 78bd 5b7f 55be 1312 80be
00000080: 24da 69bd 5f52 803d 5483 9a3d a29d 99bd
00000090: 6a5a 483d 6bd2 05be 70b2 463d ab27 21bc
000000a0: 476b 38bd 7c56 2dbe 47eb e4bd 4dce 37bd
000000b0: 37d1 d7ba 7970 5e3d 4f1f 773d 30f0 c33d
000000c0: 861e 2dbe dcbd ccbd 9c9a 93bb 4e54 cf3c
000000d0: 63b8 c23d 98c2 2abd ae7f a4bd 2825 b9bc
000000e0: 9a69 443d e562 16be 4861 1abe f08a 1b3e
000000f0: dbf5 743d f787 09be c5f4 dfbc 1595 e73c
00000100: 0152 4dbe c2b7 41be 1006 99be 4691 5cbe
00000110: 7c9f a43d 1fa8 90be 1ad4 ad3c f1eb 2abe
00000120: 9ef2 b1bb 6f1b e33c e4a3 433d 914c be3d
00000130: 2d38 393c 1cc3 e63d 7115 b73d 0989 983d
00000140: 44cb 1abb 8891 2bbe a118 45bd a9ce cfbd
00000150: d66d 46bc 1a0d cc3c cba6 37be 3c50 05be
00000160: 4290 1cbe c8ee 2f3c 057e 0bbc beb7 a2bd
00000170: 6014 253d 291c 03be fcd3 38bb 3003 fabd
00000180: 3dff 393d 2e7a 803d e8aa 533d 1f2c 983c
00000190: 184c 8e3d 1b28 973d bdbd a0bd c4c4 6bbd
000001a0: 5151 66be 865b 4f3d bce8 bc3d 6b86 cd3c
000001b0: b8ac 503d 645b 5bbe 8b16 67bd 2ad6 a4bd
000001c0: a296 513d e9f9 28bd a333 85b9 b962 d23c
000001d0: 95bb b93c 559b cebd 91c4 2abe aaaf e4bd
000001e0: 1a5c d1bd a53a 6f3d cd80 4ebe 364e ddbc
000001f0: e611 703d 4e01 0cbd fbf3 983d 318a 05bd
-0.11953973 0.090657935 -0.15308824 0.05971374 -0.04616903 0.05088538 -0.08464977 -0.058730353
-0.06417737 -0.04577458 0.051692266 -0.09221845 -0.10117505 -0.05226283 -0.043609552 -0.0075053754
-0.16400129 0.00506316 -0.13572499 0.13721135 0.061215445 0.008993852 -0.2130391 0.044232678
-0.04952834 -0.0018727178 0.0055231433 -0.19917646 -0.25391418 -0.0607525 -0.20849364 -0.2501379
-0.0570928 0.06265711 0.0754458 -0.07500769 0.04891435 -0.1306855 0.048510015 -0.009836118
-0.045024183 -0.16927522 -0.11177688 -0.044874478 -0.0016465549 0.05430648 0.060332593 0.095672965
-0.16906175 -0.0999715 -0.004504515 0.025308754 0.09507825 -0.041689485 -0.080321655 -0.022600725
0.047952272 -0.14686163 -0.15076172 0.15189719 0.05980478 -0.13430773 -0.027338395 0.02826933
-0.20050813 -0.18917754 -0.29887438 -0.21539792 0.08038232 -0.28253266 0.021219302 -0.16691567
-0.0054305336 0.027723042 0.04776372 0.09291948 0.011304897 0.11267683 0.089396365 0.074480124
-0.002361969 -0.16754735 -0.04811919 -0.10146839 -0.012111148 0.024908591 -0.1793472 -0.13018888
-0.15289405 0.010738082 -0.008513932 -0.07945202 0.040302634 -0.12803711 -0.0028202524 -0.12207639
0.04540943 0.06273304 0.05167666 0.018575726 0.069481075 0.073806964 -0.0784869 -0.057560697
-0.22491957 0.050624393 0.09224078 0.02508851 0.050945967 -0.21421582 -0.056417983 -0.08048661
0.051169045 -0.041253958 -0.0002540621 0.02568184 0.022672454 -0.10088221 -0.16676547 -0.11166318
-0.10222645 0.058405537 -0.20166321 -0.027014833 0.05861082 -0.03418093 0.074684106 -0.032602493

cnn.1.running_mean f4 [128]
00000000: 41b9 063e 140f 9fbd 9640 953c 56fc 4ebe
00000010: 01f0 153e fe02 4ebd 2602 9d3e 0c56 8c3d
00000020: b317 093e e64a 8bbe 3412 4dbe 41d5 4bbe
00000030: cc48 04be c4ed 5d3b a565 e23d b650 b6be
00000040: f647 04be fa87 0c3e fe52 0c3e 868f 35be
00000050: f54a e3bd 3438 4fbe 6495 703e ae4b 44be
00000060: 151f 8bbe 2021 cbbd caa7 6fbe 685e b5bd
00000070: 1d36 603b cb92 6a3e d0b3 d6bc 862c 573e
00000080: 8cc8 be3d 2426 513e 255b 93bd d920 acbc
00000090: 7eef 913d 3b60 6e3e 2897 2abd f583 8a3a
000000a0: 1f5c 833e a3bf 323d a711 56be ad9e 85be
000000b0: 4e08 83bd 62ad 0bbe e742 2abe 1981 4bbd
000000c0: 9c14 25bb 762c bb3d 5c7c f63c 6fd5 6ebe
000000d0: 2465 e93d 77b6 43bd 36f9 30bc 60fa d83d
000000e0: 7ca1 13be e23c 9c3d 3703 d43d 974b 313e
000000f0: 6f6b e93d a52c aabd b01f 1fbe 5612 6cbd
00000100: f938 843e 6b25 323e 5c98 a3bd 0b01 633e
00000110: ea9b 28be 3c2b e03d 6477 b83c 96db 6dbe
00000120: d700 04be ca0d 72be 9a9b 9e3d 4a56 f7bd
00000130: c1a1 cdbc 24f8 6e3d 51c4 bcbd b8c6 0ebe
00000140: 8962 6ebe 1c68 183e 6726 363e 62ef e6bd
00000150: 03bb 1dbe 832f 143e 07e1 483e 6ae2 09be
00000160: ef98 543e be53 58bd 3cab 18be 7d25 0d3c
00000170: e261 af3d b97b 103d 3e89 cb3b fa00 2a3e
00000180: 0851 0e3e 8269 1b3e 0f72 0bbc d212 7fbe
00000190: a8cc 3ebe 09bc a7be 3644 cdbb 3682 c1bc
000001a0: 52d7 24be e476 0fbe 9a5f 653e 3428 26be
000001b0: 15fa 2abe 6302 a73c 69de 693d d3c0 353e
000001c0: dc03 54be 9e07 dabb 1226 143e 2853 d7bd
000001d0: 05e3 2ebd 3af4 30bd 1ca3 4d3e 7e1c 56be
000001e0: 8fd3 073e de9b 23be da8d b1bc 118e 3bbc
000001f0: b30e 353d a516 3ebe e819 f3bd 59a1 ac3d
0.13156606 -0.07766548 0.018219274 -0.20213446 0.14642335 -0.050295822 0.30665702 0.0685235
0.13387947 -0.2720558 -0.20026475 -0.19905569 -0.12918395 0.0033863643 0.110545434 -0.35608453
-0.12918076 0.13723746 0.13703534 -0.17730531 -0.11098281 -0.20236284 0.23494488 -0.19169495
-0.2717215 -0.099184275 -0.2340385 -0.08855897 0.0034211942 0.2290756 -0.026208788 0.21013078
0.09315595 0.20424706 -0.07195119 -0.021011757 0.07125758 0.23278897 -0.04164806 0.0010567891
0.2565622 0.04363979 -0.20905171 -0.26097623 -0.06398068 -0.13640359 -0.16627084 -0.049683664
-0.0025189286 0.091393396 0.030088596 -0.23323606 0.11396244 -0.047781434 -0.010801604 0.1059463
-0.1441707 0.076288 0.10352176 0.17313991 0.113974445 -0.083092965 -0.15539432 -0.057634674
0.25824717 0.17397086 -0.079880446 0.22168367 -0.16465726 0.10945746 0.022517867 -0.23228297
-0.12890945 -0.23638073 0.077445224 -0.12077005 -0.025101544 0.058342114 -0.09217132 -0.13942993
-0.23279776 0.14883465 0.17788087 -0.112761274 -0.1540337 0.1447125 0.19617091 -0.13465276
0.20761465 -0.052814238 -0.1490907 0.008614895 0.085635915 0.03527424 0.006211429 0.16601935
0.13898098 0.15176967 -0.00851108 -0.24909523 -0.18632758 -0.32760647 -0.006264235 -0.02362166
-0.16097763 -0.14010197 0.2239975 -0.16226274 -0.16696961 0.02038688 0.057096872 0.17749338
-0.20704597 -0.00665374 0.14467648 -0.10513908 -0.04269697 -0.043201663 0.20081753 -0.20909306
0.13264297 -0.15977427 -0.021674085 -0.0114474455 0.04420347 -0.18563326 -0.118701756 0.08429212

cnn.1.running_var f4 [128]
00000000: 4a69 2f3c 761b ad3e 1db3 1b3f 504b 7941
00000010: e9c3 ae41 3acc 853e 7bb6 7b41 e404 7941
00000020: 72ef 263c cc4f 1141 4e1d 873e d023 b13c
00000030: f864 1541 b853 f341 4098 433e e88f ce41
00000040: 2519 ca3f a460 a83e d422 f83e 5ff5 ef3e
00000050: cfb1 a43e 126d e340 65db 9b3f d961 293f
00000060: 1da3 6641 4dac d03f 16ff a13e 40a6 3e3f
00000070: 9177 8b3f c59f 1c3e 9d0d 0a41 15fb 0c41
00000080: 5fd0 3b40 d0fd a13e 9794 0b3f be04 d13f
00000090: dfd8 913e d90d 2c3d 9351 a940 d887 163e
000000a0: a12c 1a3e 1189 8640 b3b8 083e 33c8 f040
000000b0: 5e3a d33e 919b 1e3e b7e4 c63f 5a3e 133f
000000c0: 1c33 de3e a50b 943e 3826 0441 8fd9 bf3d
000000d0: 4c45 f03e 0170 a641 07b1 323f c549 ac3e
000000e0: a951 e53e ce07 093e 2c7e 6c3f f7d5 063f
000000f0: 8120 173e 069c 873f 15b7 9f3e b2b6 523e
00000100: 4a70 103f 9874 2a3e 388d 5740 05ba f93e
00000110: d453 1d3f a9f8 1140 b59c 0e3f 9cd9 973f
00000120: e29e 0741 ff27 093f 23f7 b640 676f 1441
00000130: 77fa bf41 5353 5d3e 2156 2b3f 8328 0e41
00000140: 25d2 2a3f 0dde 5f41 9bf2 e540 e65c 3e3f
00000150: 04b3 0b3f 3d5f 113f 3646 1c40 f6d4 c53e
00000160: afcd f23e 7c1e 6e3e 9c5d 103f ba3c 0141
00000170: f66d 933e fa4a d73e 4650 a040 206c d741
00000180: bf8b ac3e 5feb f240 fe85 a641 2154 cb3e
00000190: 5511 e03e ae97 a13d 12da 1c41 d368 8540
000001a0: 7eb8 cc3f d0d2 763f 0d21 983c ac2c bc3e
000001b0: 7372 893e 0d3f 3b3f 8d51 143c f315 da40
000001c0: bb0b 813f 9070 a641 d633 f040 b8f8 0e3f
000001d0: 80f6 0e3f 0d5d 1f41 3412 803e 078c 5640
000001e0: fed7 823e cccf 113f a8c6 b141 b4cc 013e
000001f0: c86c c33e 0e56 1741 b455 c83e 7a81 4a3f
0.010706255 0.33810014 0.6082018 15.580887 21.84566 0.26132375 15.732051 15.563694
0.010188924 9.081982 0.26389545 0.021623522 9.337151 30.415878 0.19101048 25.820267
1.5788924 0.3288623 0.48464072 0.4686689 0.32166907 7.1070642 1.2176329 0.6616493
14.414823 1.6302582 0.31639928 0.7447243 1.0895864 0.15295322 8.628324 8.811299
2.934593 0.31638956 0.54523605 1.6329572 0.28485772 0.042005394 5.291208 0.14700258
0.15056087 4.2042317 0.13351707 7.5244384 0.41255468 0.15489031 1.5538548 0.57517016
0.43398368 0.28915134 8.259331 0.09367668 0.4692787 20.80469 0.6980137 0.33650032
0.44788864 0.13381884 0.92380023 0.52670234 0.14758493 1.059449 0.31194368 0.20577505
0.5642134 0.1664604 3.3679943 0.48774734 0.61456037 2.280802 0.55707866 1.1863284
8.47629 0.53576654 5.717668 9.277198 23.997297 0.21613817 0.669283 8.884891
0.66726905 13.991712 7.185865 0.743605 0.5457003 0.5678595 2.4417853 0.3863904
0.4742255 0.23253816 0.56392837 8.077326 0.2879483 0.4204939 5.009799 26.927795
0.33700368 7.591232 20.815426 0.39712623 0.43763223 0.07890259 9.80324 4.169046
1.5993803 0.96415424 0.018570447 0.36752832 0.2684513 0.7314308 0.009052646 6.8151793
1.0081705 20.804962 7.5063276 0.55848265 0.5584488 9.960217 0.25013888 3.3522966
0.25555414 0.569577 22.222 0.12675744 0.3816893 9.458509 0.39127886 0.79103816

cnn.4.weight f4 [128, 128, 3]
00000000: 41e9 8a3c 74e5 0b3d 922d 233b 519a 30bd
00000010: d79d babb 9f25 38bc 1bb8 08bd e623 acbc
00000020: 9a1f 37bd d2d6 e6bc 717f c43c c3e0 ccbc
00000030: 7017 263d e3be b3bc db6d 25bd 82d6 f53c
00000040: 9d23 0dba fb6b 80bd 76a0 e0bc dfff efbc
00000050: d066 10bd ddd7 0d3c 1f64 dcbc 143d c2bc
00000060: 0205 21bd 8a3a 1fbc b4e9 16bd 2f63 1fba
00000070: b6f0 0d3d 8d69 48bd 1839 163c 8a9f 333d
00000080: 146f 063d 0c61 993c fd7f fe3c 42e8 17bd
00000090: da22 2c3d 38f6 63bc f0ac 80bd d0aa 9dbb
000000a0: 96b2 953c 6ed7 4a3b 4da6 113d ea6a adbc
000000b0: 8a35 7b3b 911d 033d 4c04 09bd 47b0 2bbd
000000c0: 27f1 caba a061 4abc 9cc4 bfbc 15b2 72bb
000000d0: dfdb 04bd 5a31 d9bc 003a 473d b61e 5cbc
000000e0: 4d00 41bb f1af 48bd eb4d 363c 167c 5ebd
000000f0: 2d5b 363c ce69 d4bc b27b a13d 7071 e73a
00000100: 0111 113c 5c54 a63c 2590 80bb 700d 4fbc
00000110: 0c71 a43c a94d 47bc 6590 41bd 8a1c c7bc
00000120: 473c 9b3a 09ed 463d 477a 8a3b fee8 99bc
00000130: a242 10bc a871 2b3d 473e e13c bf97 68bd
00000140: 217e da3d 794d 08bd eec9 6bbd 7663 25bd
00000150: af22 0d3c 4bb2 82bc d123 003d 5a0e b4bb
00000160: a866 10bc 7b66 7a3d c9eb 2ebd a7dd 423c
00000170: 19c3 e73c 01a5 0dbc b9cf cbbc 7dad 28bc
00000180: ebe0 11bc 479d dc3c c0fb 6fbd 9bad 3dbd
00000190: a216 02bd c672 09bd f230 fbbc e0c0 3abd
000001a0: f8d9 4ebd fac5 213d 576c 5dbb 996e 353b
000001b0: 0acd 34bd 2b78 12bb c5cc 17bd c5e3 d7bc
000001c0: 6592 02bc a781 ab3c f5e2 8dbb 85cd 4bbc
000001d0: 35c9 883c e2ef 453d 24c4 c03c 383d 463d
000001e0: 2e3c 8cbc e888 1f3c 852f 063c 0788 0abd
000001f0: 07fa 8939 8f29 903c 7a6c 403c 2f47 b3bc
00000200: 63d3 a3bc 75a6 5e3d 0fd3 773c ab15 48bc
00000210: 6618 423c dcac 25bd d28d 72bd 61da 043c
00000220: 2985 86bc a2ed 003c a474 cabc 6626 d4bc
00000230: 2f40 163c 9107 77bb af65 63bd 1d86 59bd
00000240: 07fc fd3c 73e6 e33c d1f2 c2bb bdfb bdbb
00000250: 2fc9 14bb 435d 103d 479a 73bc c219 5d3a
00000260: 06ee df39 8602 f3bc a80a 32bd b84c 4ebb
00000270: b030 093c d9b1 4dbc 473e 1abc b23d 3b3d
00000280: f5ba 1dbd 7fa7 3ebd 54b1 45bd bbc0 203a
00000290: db7e 0fbd 1236 2c3d fa82 883c 216b 1ebc
000002a0: 431e 333b d111 26bd 4351 5b3d 09ac e73c
000002b0: c315 833d e4b7 aa3c 2910 fb3c 13e0 083d
000002c0: 28e0 80bc 2fcb b2bd 4e8e 493b 6667 acbd
000002d0: d452 da3c ee07 2ebc b5e2 4cbd ea60 c2bc
000002e0: a54a 813c 629b 2b3c ad9e 203d fb3c c23c
000002f0: f654 b73c 3164 81bc 86e6 ed3c d0fa 173d
00000300: 1483 3cbd 4e37 653b e912 1a3c ea2d 1ebd
00000310: 3e5a c03c 6c97 26bc fcbd 13bb f227 20bd
00000320: 3e7f d7bc 9754 d4bc 33b7 3b3c c5dc 05bd
00000330: 8663 2fbd 6f88 893c 1533 09bd 05c5 0dbc
00000340: 6457 3bbd ad85 e4bc 2b78 e33c 7d17 2cbd
00000350: fd1b 163d e68e cbbc af99 c4bc 9e17 a2bc
00000360: 8946 c63c 0bd5 163d 9063 8fbc 3253 353d
00000370: 6240 933c 00ca 32bd 59eb 163d 18a7 dfbb
00000380: e417 79bd ee13 0a3c 5bb6 b43c 8616 a63c
00000390: 3df6 7fbc b818 8abc 7c24 423b 12d7 ccbc
000003a0: bc8d feba da1d f8bc 7576 02bd ec13 3c3c
000003b0: e137 0cbd d766 04bd 6155 03bd 3079 9b3c
000003c0: b19c 213d ef85 2b3d 1154 4e3a ba41 4cbd
000003d0: 71fa 44bb b0f4 b93c 0a71 5a3b 6017 ab3c
000003e0: 8353 9dbc fd1b ed3b 97bb bebb b23a ae3c
000003f0: cd75 d43c 8144 7c3c 66c9 d13c 88cc 0b3c
0.016956927 0.03415437 0.0024898988 -0.043115918 -0.0056950855 -0.011239438 -0.0333787 -0.021013211
-0.044707872 -0.028178606 0.02398655 -0.025009518 0.040549695 -0.021941608 -0.04038797 0.030009512
-0.000538403 -0.06270596 -0.027420264 -0.029296814 -0.0352543 0.008657423 -0.02690321 -0.023710765
-0.039311416 -0.009718547 -0.03684397 -0.0006080148 0.034653388 -0.048928786 0.009168886 0.04385332
0.032820776 0.018723033 0.031066889 -0.037086733 0.042025425 -0.013913684 -0.06282985 -0.004811622
0.018273633 0.003095116 0.035558987 -0.021169145 0.0038331472 0.03201062 -0.033451363 -0.041916158
-0.0015483246 -0.012352377 -0.02340918 -0.0037032415 -0.032436248 -0.02651279 0.048639297 -0.013435056
-0.0029449642 -0.048995916 0.0111269755 -0.054317556 0.011130136 -0.025929358 0.07884921 0.0017657708
0.008854152 0.020303898 -0.0039234334 -0.012637481 0.020073436 -0.012164512 -0.047256846 -0.0243056
0.0011843526 0.048565898 0.0042260024 -0.018787857 -0.008804949 0.041856438 0.027495516 -0.05678534
0.106685884 -0.03327701 -0.057565622 -0.040378056 0.008614226 -0.015954157 0.031284157 -0.005494875
-0.008813538 0.06113289 -0.04270533 0.011893666 0.028291272 -0.008645297 -0.024879323 -0.010295269
-0.008903722 0.026930464 -0.058589697 -0.04630814 -0.031759866 -0.033556722 -0.030662987 -0.045594096
-0.05050084 0.039495446 -0.00337865 0.002768433 -0.044140853 -0.0022349458 -0.037060518 -0.026353726
-0.0079694735 0.020935846 -0.004330034 -0.012439136 0.016697505 0.048324473 0.023531027 0.048398226
-0.01711854 0.009737231 0.0081900405 -0.033821132 0.0002631696 0.017597942 0.011744613 -0.021884529
-0.019998258 0.054357965 0.015126004 -0.012212197 0.011846637 -0.040448055 -0.05921728 0.008108706
-0.016420918 0.007869156 -0.024713822 -0.025897216 0.009170576 -0.003769372 -0.055516895 -0.053106416
0.031003965 0.027819848 -0.005949356 -0.005797832 -0.0022702923 0.03524519 -0.014868326 0.0008434319
0.00042711216 -0.02966429 -0.043467194 -0.0031478833 0.008373424 -0.012554609 -0.009414262 0.045713134
-0.038508374 -0.046546455 -0.048264816 0.00061322347 -0.03503309 0.042043753 0.016664017 -0.009669096
0.002733127 -0.040544335 0.053544294 0.028280275 0.06400635 0.020839639 0.030647354 0.03341682
-0.015731886 -0.087301604 0.0030754986 -0.08418159 0.026650824 -0.010622008 -0.050020892 -0.023727853
0.015782664 0.010474058 0.039213825 0.023710718 0.02237938 -0.015794845 0.029040586 0.037104428
-0.046023443 0.003497559 0.009403923 -0.038618006 0.02348053 -0.010167938 -0.002254366 -0.039100595
-0.026305791 -0.025919242 0.011457252 -0.032681245 -0.042819522 0.01678869 -0.03349598 -0.00865293
-0.04573764 -0.027895773 0.027767261 -0.042014588 0.036647785 -0.024848413 -0.023999063 -0.019786652
0.024203556 0.036824267 -0.01750353 0.044268794 0.017975036 -0.043649673 0.03684554 -0.006825339
-0.0608138 0.008427603 0.02205961 0.020274412 -0.015622673 -0.01685749 0.0029623797 -0.025004897
-0.0019420902 -0.030287672 -0.03185125 0.011479359 -0.034232978 -0.03232464 -0.032063846 0.018978685
0.039456073 0.041875776 0.0007870803 -0.04986737 -0.0030056501 0.022699684 0.0033331537 0.02088517
-0.01920486 0.0072360025 -0.0058207023 0.021268222 0.025935078 0.015397192 0.02560873 0.008532651

cnn.4.bias f4 [128]
00000000: af7f ad3c 868f 91ba 3c84 4fbd 43f3 ccbb
00000010: c6f0 063d 2af6 2bbd f229 24bd 4678 02bd
00000020: 5787 d9bc 9e6b 42bc b380 35bd 7044 e8bc
00000030: a63e dfbb 13f6 043b a832 8dbc a624 95bb
00000040: 0d4f 8dbc 0eb5 31bd 174c 923c 3928 01bc
00000050: 6fca 3fbd aec9 23bd e31f 6d3c c660 f2bc
00000060: 8929 203d e088 edbb a949 f9bb e958 73bc
00000070: 9faf aebc f9a6 a53b cbfb 9dbc 1bd6 f23c
00000080: 9cc1 4c3d d104 f3bc 9401 313d 966f 4abd
00000090: 3a1f 1fbc e98f 4fbd 5554 a23c 0214 a5bc
000000a0: a174 903a c3d5 9c3a 7ff3 28bd 9aa4 1a3d
000000b0: d3e2 773c 5e3d 243d d454 40bd ec58 08bd
000000c0: 735a 083d 8cd8 fc3b 05dc 4f3d 85cd bbbc
000000d0: 6f19 9fbc c715 803c bf2e 07bd 133c 69bc
000000e0: 17c0 ca3b becf 18bd 8e00 3b3d 8145 a93c
000000f0: 76f3 113c cb26 22bc d187 6e3c 15bf bc3c
00000100: ea2d bc3c b7e8 a7bc aa20 083d e88c ac3c
00000110: 17a8 e03c 0a15 4b3d 4544 2cbc 06d2 b13c
00000120: a2b5 26bb 9c42 0b3d 792a 313c 915d 453d
00000130: a5f7 333d 4927 12bd f574 023d 82c1 16bd
00000140: 3d72 e2bb 1411 36bc 98fe 2e3d 288a e33a
00000150: 74e8 143d bf34 3d3c 890e 473d 9308 cf3c
00000160: 17fb b43b d05b 89bc 37ec 23bd d608 eabc
00000170: 2853 3d3c 3f0d abbc cd5f cebc ab21 163d
00000180: 991f 0d3d f3d7 23bb 9bb6 573c 6567 2bbd
00000190: 9de0 923c 9533 c2bc ea40 18bd 0134 2a3d
000001a0: 56cb 393d 9d0b 493d 838f 49bb 1a70 15bd
000001b0: ff3d 083d 5efd 773c bb4b 423c 05c0 273c
000001c0: 4f59 273c f821 20bd 1269 483c 00f7 c4bc
000001d0: 54f7 7cbc d656 143d 9ff7 1c3b 62f3 2b3d
000001e0: cef4 9f3b 889d ad3b cc94 413d 91ce 143d
000001f0: 1a59 37bb c0ae ff3c aac9 373d edee 23bd
0.021179048 -0.0011105395 -0.050663218 -0.006254585 0.032944463 -0.041982807 -0.040079065 -0.031852983
-0.026553793 -0.011866478 -0.04431219 -0.028352946 -0.006812888 0.0020288273 -0.017236069 -0.004551488
-0.017249608 -0.043385558 0.017858548 -0.007883125 -0.046823915 -0.03998726 0.014472934 -0.02958716
0.03910211 -0.007248983 -0.007607658 -0.014852741 -0.021323977 0.005055305 -0.019285103 0.029643109
0.049989328 -0.029665383 0.043214396 -0.049422823 -0.009712035 -0.050674353 0.019815603 -0.020151142
0.0011021086 0.0011965561 -0.04124784 0.037754633 0.015129763 0.040097587 -0.0469559 -0.033287928
0.033289384 0.007716244 0.050746936 -0.022925148 -0.019421307 0.015635384 -0.033003565 -0.014235514
0.0061874497 -0.037307493 0.045654826 0.020663025 0.008908143 -0.009896944 0.014558748 0.023040334
0.022971112 -0.02049671 0.033234276 0.021063283 0.027423901 0.04958061 -0.010514324 0.021706592
-0.0025437851 0.03399907 0.010813349 0.048184935 0.043937344 -0.035681996 0.03184982 -0.036805637
-0.006910591 -0.01111247 0.04272327 0.0017359899 0.036354497 0.01154822 0.048597846 0.025272643
0.0055230963 -0.016767412 -0.040020194 -0.028568666 0.0115554705 -0.02088034 -0.025192166 0.036653202
0.034453962 -0.0025000542 0.013166095 -0.04184665 0.01792937 -0.023706237 -0.037171282 0.0415535
0.045359932 0.04908334 -0.0030755706 -0.03648386 0.03326225 0.015136091 0.011858876 0.010238652
0.010214164 -0.039094895 0.012232082 -0.02404356 -0.015439827 0.036215626 0.0023951305 0.041980155
0.004881478 0.00529832 0.047261044 0.03632981 -0.0027976693 0.031211257 0.044870056 -0.04002278

cnn.5.weight f4 [128]
00000000: d42f 813f 3f15 7e3f 0a0d 753f ce00 853f
00000010: 0182 823f e964 7a3f b110 803f 6c07 803f
00000020: d675 773f bf9c 7f3f 7219 763f c3a0 853f
00000030: 49e9 843f 26ce 773f d5b7 793f fc2e 723f
00000040: 8b38 713f d16a 803f a452 873f 255a 7b3f
00000050: 6f21 7e3f a71b 763f 872c 813f dbc3 7f3f
00000060: baa1 7c3f 42e8 7d3f 548d 813f f07f 833f
00000070: 9b4f 773f caa3 823f d91a 7e3f d424 843f
00000080: bd06 773f 5794 793f ee6e 813f e27a 823f
00000090: c142 7e3f 4e81 713f 6386 793f 057a 843f
000000a0: 1a38 823f 6fb0 823f 3a56 823f 5939 773f
000000b0: 8b12 823f 3825 803f c251 823f 2ef8 793f
000000c0: 997a 803f 4012 843f e534 823f cd36 843f
000000d0: 922c 823f 5785 793f 16a4 7c3f fed7 7c3f
000000e0: 26bb 793f 6dad 7f3f 75f7 813f 6693 7f3f
000000f0: c9e1 723f 07db 793f 5658 753f fff2 813f
00000100: 547d 763f 77fd 803f 93db 823f 5f33 783f
00000110: eee4 803f 6b13 823f 5417 7b3f 728e 813f
00000120: baef 723f 9929 803f 3b4d 813f f0d9 823f
00000130: 7ad0 853f 8294 863f 5fbc 843f fb3d 803f
00000140: 16a4 783f 80cc 7f3f 4c16 803f 7b6b 7f3f
00000150: 8057 833f 88ab 7b3f 0330 763f 3d10 7f3f
00000160: 5dbd 743f 97ea 823f a047 7d3f a9f8 763f
00000170: 686b 7b3f 01bc 843f 06bd 713f e10e 803f
00000180: ade3 743f 3827 7f3f ea4e 823f 31b7 7d3f
00000190: 4f75 7e3f e782 7f3f 4c96 7e3f 7bd0 7c3f
000001a0: d9d0 873f aa04 7d3f 2d6e 813f c88f 7d3f
000001b0: 9c59 7e3f 0c55 763f 813d 7a3f 18a8 7e3f
000001c0: 6864 823f d4e0 793f a805 773f ffc3 7c3f
000001d0: a8f3 7d3f ce26 863f 4410 7b3f d091 823f
000001e0: 45d9 823f 5e3d 773f 617b 7c3f 85ab 733f
000001f0: b032 823f 6197 733f df78 7c3f 6f57 813f
1.0092721 0.9925117 0.9572302 1.039087 1.0195924 0.97810227 1.0005094 1.0002265
0.9666418 0.9984855 0.96132576 1.0439686 1.0383693 0.9679893 0.9754613 0.9460294
0.942269 1.0032598 1.0572095 0.98184425 0.99269766 0.96135944 1.0091714 0.99908227
0.98684275 0.9918252 1.0121255 1.0273418 0.96605843 1.0206234 0.99259716 1.0323739
0.96494657 0.97491974 1.0111978 1.0193751 0.9932061 0.9433793 0.9747068 1.0349737
1.0173371 1.0210093 1.0182564 0.9657188 1.0161909 1.0011358 1.01812 0.9764432
1.0037414 1.031807 1.0172392 1.0329224 1.0169852 0.97469085 0.98687875 0.9876708
0.9755119 0.99874 1.0153643 0.9983429 0.9487577 0.97599834 0.95837915 1.0152282
0.96284986 1.0077351 1.0223259 0.96953386 1.0069864 1.0162176 0.9808247 1.0121596
0.94897044 1.0012695 1.0101694 1.0222759 1.0454247 1.0514071 1.0369986 1.0018915
0.97125375 0.9992142 1.0006804 0.9977338 1.0261078 0.9830861 0.9616701 0.9963415
0.95601445 1.0227841 0.98937416 0.96473175 0.98210764 1.0369874 0.9442905 1.0004541
0.95659906 0.9966922 1.0180333 0.9910765 0.9939775 0.99809116 0.99448085 0.98755616
1.061061 0.9883524 1.0111748 0.9904752 0.99355483 0.9622352 0.977501 0.9947524
1.0186892 0.97608685 0.96493006 0.98736566 0.99199915 1.0480592 0.98071694 1.0200748
1.0222555 0.96578014 0.9862576 0.95183593 1.0171719 0.9515286 0.98621935 1.0104808

cnn.5.bias f4 [128]
00000000: d895 60bd dadf aebd a162 d5bd ee79 afbd
00000010: 9028 2cbe 28f7 32bd 0632 c53c bd98 ab3c
00000020: 268e 89bd e89a 25be 0ab4 10be ac41 02be
00000030: cbd3 e8b9 d0ea 1cbe 8d6f 35be cd69 debd
00000040: 973d 16be aee2 3bbe f883 c4bd cfb4 40bd
00000050: e878 22be 5442 a2bb 9ee9 133c 04a3 33be
00000060: 7558 1dbe 0a34 b3bd 2082 d1bd f80d 35be
00000070: afe0 5cbc dd09 29be f00e e73c d92a cebc
00000080: 0974 c1bd 1777 b7bd 51d0 553d 07fd 45be
00000090: a5fa e3bd cd7d 94bd 8663 e73b 7d8e e23d
000000a0: b567 99bd fcbb 7dbd 1ae2 efbd 5709 05bd
000000b0: fe5a ab3d 8397 d0bc 5a27 2b3d b577 26be
000000c0: a088 4cbe 3c7c 71be 098b 26be 58c3 48be
000000d0: cb40 3bbd 4874 48be 900b b8bd 59b2 133d
000000e0: ae42 683d f169 493d eea3 94bc ce87 e9bd
000000f0: 2085 5abe d2b1 aebd 2fda d53a 4d90 47be
00000100: 7d9b 61be 28c1 74bd b187 d6bd 6d2b f4bd
00000110: 3059 3abe 8c49 7ebd f8a1 43bd ea6d 15bd
00000120: 7fc8 81bd a3f6 93bc a46e 16be 3d9b 32be
00000130: 1ff0 57bd ca9f d4bd d31d 12bc 4ec8 1f3d
00000140: 7bbb 81bd 40e3 033d a7ee 21be 20a7 61be
00000150: 2147 f43c 79f0 14be 2e9a abbc 6925 81bc
00000160: 878b 1abe 7aa9 f2bd c513 31bd 5cc2 5abd
00000170: 6e80 2c3c 8b1f 0abe 24d6 4abd c940 343c
00000180: 55f1 0fbe 2af2 c8bd 6ce8 48be fa34 e33c
00000190: 936b 7dbb 13f8 8dbd d42c 3d3d 1999 f1bd
000001a0: 7e83 0c3b 6feb 23be 1837 503c cb03 0bbe
000001b0: 26fc 92bc d72a f9bc f913 56be 6c62 4abe
000001c0: de92 10bd afec 843c 258b a1bd b8a7 a0bd
000001d0: 392e e1bc 0700 86bd 621b 54be 11d6 21be
000001e0: f64a 5d3d 72cb d1bc 934f 1dbc 2c45 94bd
000001f0: dbda 51be a7cf 8bbc c48a ccbb 7019 3abd
-0.054830402 -0.0853879 -0.104192026 -0.08568178 -0.16812348 -0.043692738 0.024071705 0.020946855
-0.06716566 -0.16172373 -0.1413118 -0.12720364 -0.00044408286 -0.15323949 -0.17718334 -0.10860024
-0.14671932 -0.1834819 -0.095954835 -0.047047433 -0.15866435 -0.0049517546 0.009027867 -0.17542654
-0.15365775 -0.0875016 -0.102298975 -0.1768111 -0.013481303 -0.16507669 0.028205365 -0.025166916
-0.0944596 -0.089582615 0.05220062 -0.19334804 -0.11131791 -0.07250557 0.0070614247 0.11062334
-0.07490484 -0.061946854 -0.11713047 -0.03247961 0.08366965 -0.025462871 0.041785575 -0.16256602
-0.19973993 -0.23582548 -0.16263975 -0.19605768 -0.04571609 -0.19575608 -0.0898658 0.036058757
0.056704216 0.0491733 -0.018144574 -0.11402856 -0.21339846 -0.0853001 0.0016315634 -0.1948864
-0.2203197 -0.05975452 -0.104751 -0.11922345 -0.18198085 -0.06208186 -0.047761887 -0.036481775
-0.0633707 -0.018061941 -0.14690644 -0.17442031 -0.05271923 -0.1038204 -0.008918243 0.039009385
-0.06334587 0.032199144 -0.15813695 -0.2203641 0.029819073 -0.14544858 -0.020947542 -0.015764909
-0.15092288 -0.11848731 -0.043231744 -0.05340801 0.010528667 -0.13488595 -0.049520627 0.011001774
-0.14056905 -0.09811814 -0.19619912 0.027735222 -0.0038668856 -0.06932082 0.04618533 -0.11796779
0.002144068 -0.1600778 0.012708448 -0.13575666 -0.0179425 -0.030415935 -0.20906056 -0.19764107
-0.035296313 0.01622614 -0.07887868 -0.0784449 -0.027487861 -0.06542974 -0.2071357 -0.15804316
0.054026566 -0.025609706 -0.0096014915 -0.07239756 -0.20493643 -0.01706679 -0.006242128 -0.045434415

cnn.5.running_mean f4 [128]
00000000: a666 03bf 9b1e aebd ac66 d2be 2ca2 50bf
00000010: 48df 083f c8f0 96be 4212 00bf a9a4 e4be
00000020: 9db0 32bf 28bc 973d 33b2 1c3e 4511 5a3e
00000030: 9fec 62bf 2952 1fbf 832b 5ebd 15de 4a3f
00000040: b50f 90be 63a0 483f 9e71 1cbf 8502 64bd
00000050: b664 793f 0c1f 98be 11b3 46be 13f2 633e
00000060: 825b 44be d045 b1be 4795 0c3f b13d 2e3e
00000070: 9d61 33be cec8 74be 9ad0 43bf 6c47 363e
00000080: e437 b13d d044 9d3e a7ff 3cbf 51d0 773e
00000090: dd7e 353f ec73 96be d98e c9be daea e4be
000000a0: 5214 f73e 6b3f c13e d4fd e93e bc36 9f3b
000000b0: 5745 90be 54fa 02bf d868 03bd a6d5 1f3e
000000c0: 7e10 5a3f a542 58bd c115 7c3f 87dc 6e3f
000000d0: f46c 0abf 3585 843f e15f b9be be6a 7ebf
000000e0: d8dd b5be 3e94 debe 577d 13be f003 7fbd
000000f0: 8507 5f3e 1d79 36bf 56e4 0dbf d28a 88bd
00000100: 6477 da3d 97e3 3dbf f9b7 c2bd e28a 833f
00000110: 4431 263f 2287 d2be b165 97be d82e c5bd
00000120: 359d c1be 594b da3d 2002 eabd 6635 373f
00000130: 21bb 4bbf 9fff 1c3f 69e9 17bf c5e3 10bf
00000140: d74b b73e 0d86 59bf edbb f43d c671 173f
00000150: 1140 92be 4393 213e bbba 94be 38cf 60be
00000160: b013 9a3e c933 7e3e 06bc d13e 5516 293e
00000170: a400 b03d 4202 58bd a223 f2be 20a9 863d
00000180: 6baf 593f fbad 403d 7709 863f 37b5 dbbe
00000190: 1b2e 5bbe 7631 2ebf f384 c0be 9d46 153f
000001a0: 0933 cdbe 374f b43e a3bb 27bf 043e f93d
000001b0: a3c3 fbbe 7d0d d9be 011d ab3f 7ae7 8cbd
000001c0: ed91 983e 21a3 22bf 8ab1 ffbe 15d8 93be
000001d0: 0ba2 90bd 5c9b 3cbf 505d e03e 1839 af3e
000001e0: 486a 02be 5e51 75be ad75 94be 6662 90be
000001f0: 7df3 f4bd f93f 91be ac4b bc3e 1d27 fdbe
-0.51328504 -0.08501931 -0.41093957 -0.81497455 0.534657 -0.29480577 -0.5002786 -0.44656876
-0.6980074 0.07408935 0.15302353 0.2129565 -0.88642305 -0.6223474 -0.054240715 0.7924512
-0.28136984 0.7836973 -0.61110866 -0.055666465 0.974193 -0.29711187 -0.19404246 0.22260313
-0.19175532 -0.34623575 0.5491528 0.17015721 -0.17517705 -0.23904726 -0.76490176 0.17800683
0.086532384 0.30716562 -0.73827595 0.2420056 0.70896703 -0.29385316 -0.39366797 -0.44710428
0.4825769 0.37743697 0.45701468 0.00485882 -0.28177902 -0.5116322 -0.03208241 0.15608844
0.85181415 -0.052797932 0.98470694 0.9330525 -0.540725 1.0353152 -0.36205962 -0.99381626
-0.35520816 -0.43472475 -0.14403282 -0.062259614 0.21780212 -0.71278554 -0.5542654 -0.06667103
0.10667303 -0.741754 -0.09507746 1.0276759 0.64918923 -0.41118723 -0.29569772 -0.09628075
-0.37815252 0.10658903 -0.114261866 0.71565855 -0.7958241 0.61327547 -0.5934053 -0.5659755
0.3580005 -0.8497017 0.119499065 0.5915798 -0.28564504 0.15778832 -0.29048714 -0.21954048
0.30093145 0.24824442 0.40963763 0.16512425 0.08593872 -0.05273653 -0.4729281 0.06575227
0.8503329 0.04704092 1.0471638 -0.42911693 -0.21404307 -0.6804422 -0.37601432 0.5831087
-0.40078 0.35216686 -0.65520686 0.12170032 -0.49172696 -0.42393103 1.3368226 -0.06880088
0.29798833 -0.63530165 -0.4994014 -0.28875795 -0.07062157 -0.7367456 0.43821192 0.34223247
-0.12735856 -0.2395682 -0.2899603 -0.28200072 -0.11960504 -0.2836912 0.36776483 -0.49443904

cnn.5.running_var f4 [128]
00000000: 2039 093f ce85 9c3e e5ca bd3e 5b1c ec3e
00000010: cd7d 2d3f 51bd e63f ef75 8e3f 2c6d f63e
00000020: f48b 8b3f edd1 053f da1e 033f b2e7 313f
00000030: 89bb a53f 5115 253f 1384 943e 572a 443f
00000040: ac51 073f ec90 303f a9c3 ea3e 4240 2a3f
00000050: 662b e03e e8df 313f fae5 863f 04aa b83e
00000060: 4bd3 163f 388a 193f 2361 b63e f0c8 f53e
00000070: 1818 a83f 43e4 363f fc7c 463f 1438 263f
00000080: 2394 653f c634 2d3f 8b99 b33f 93a0 003f
00000090: e981 4340 28fa 053f 28c9 b03e 1ab9 133f
000000a0: 7e06 3c40 6b58 2740 69df 953f 19d4 873f
000000b0: 446a 7b3e a3f7 f83e d8f1 283f 05c2 b33e
000000c0: a881 733e 4d72 1f3f 78f9 c33e e44b 813f
000000d0: 0431 3b3f 742c d93f be4a 4a3f 4b29 1e3f
000000e0: 5c29 213f a796 7d3e e5cd f13e 3c80 ee3e
000000f0: cce0 133f 24d4 183f d781 283f 53d7 1e3f
00000100: 0260 c43e ff31 803f e480 323f 6c4f 303f
00000110: cccc 053f 9a9f ee3e d989 d33e f3ef 783f
00000120: 4a92 1640 5250 cf3f 1feb 0e3f e1e7 b63f
00000130: 73a8 443f 51db 1540 4a9d cf3e 7514 9f3e
00000140: e99f 6e3f f043 bb3f 6683 ef3e 4453 223f
00000150: 2fae 793f 7496 053f cc7d d93e 7730 263f
00000160: 05d3 083f e3a3 5b3f 7078 aa3f cef4 2f3f
00000170: 27a6 113f 4b4e db3e 694b 643f 18b8 473f
00000180: 05a7 243f ed1f 143f 49a9 3e3f 2137 a83e
00000190: d24d 013f f78b a93f 5b40 853f 92b9 0140
000001a0: a27c 213f 5995 193f bb00 0b3f 6538 323f
000001b0: 9d53 9a3f d862 123f 9595 173f cbbd 3b3f
000001c0: 540e 333f 0edf 0a3f 753a 513f dc6d ca3e
000001d0: 8116 cd3f cab2 2b3f c5df 253f 1dc8 493f
000001e0: e13a fe3e 11ce 733f 358d 203f b12b b93e
000001f0: 7f7d 023f b355 2d3f e9db 183f 2db8 253f
0.5360279 0.30570835 0.3706886 0.46115384 0.6777008 1.8026525 1.112974 0.48130167
1.0902085 0.52273446 0.5121895 0.69494164 1.2947856 0.6448565 0.29007015 0.76627105
0.52858996 0.68971133 0.45852402 0.665043 0.4378311 0.6948228 1.0538933 0.36067212
0.5891616 0.5997653 0.35620984 0.48004866 1.3132353 0.7144205 0.7753446 0.6492932
0.89679164 0.6765865 1.4031233 0.50245017 3.054804 0.52334833 0.3452847 0.5770432
2.9378963 2.6147716 1.1708804 1.0611602 0.24552256 0.48626432 0.65994024 0.35108963
0.23779929 0.62283784 0.38276267 1.0101285 0.73121667 1.6966691 0.790203 0.6178176
0.62953734 0.247645 0.47227398 0.4658221 0.5776489 0.596987 0.6582312 0.6204731
0.38354498 1.0015258 0.6972792 0.6887119 0.5226562 0.4660614 0.41316107 0.97241133
2.3526788 1.6196387 0.55827516 1.4289514 0.76819533 2.341511 0.4054969 0.31070295
0.93212754 1.4630108 0.46779937 0.63408303 0.9753141 0.521827 0.42478788 0.649177
0.5344699 0.85796946 1.3318005 0.6873292 0.56894153 0.4283317 0.89177567 0.7801528
0.6431735 0.57861215 0.7447706 0.3285456 0.5050937 1.3245839 1.0410265 2.0269513
0.630808 0.5999351 0.5429799 0.696173 1.2056767 0.57182074 0.5921262 0.73336476
0.6994374 0.54246604 0.81729823 0.3953694 1.6022493 0.67069685 0.6479457 0.78820974
0.49654296 0.9523631 0.62715465 0.36166146 0.5097274 0.6770889 0.59710556 0.64734155

cnn.8.weight f4 [128, 128, 3]
00000000: b624 183c 6600 42bc b368 1a3d bd93 dfbc
00000010: 9092 753b 05c0 183c e2c3 1f3d d750 523c
00000020: 1221 0abd b468 323d 23f3 0b3d 4544 dd3c
00000030: f2a2 793c c04e 693d bec0 873c a534 96bd
00000040: 37ee 84bc fb88 a93c a59c 8fbc 5e95 123d
00000050: b0dc 96bc d44a 52bd cfe2 44bd 45b8 d93c
00000060: f115 a83b da2d 873c 4035 4abc 4694 7abc
00000070: 07a4 3cbd 5184 23bd 23d4 c7bc 3d90 583c
00000080: 0751 febc 7819 90bd f9b8 fdbb f023 0ebd
00000090: e903 823c 1ae6 42bc 78a1 b5bc eff2 8b3d
000000a0: a19a 3f3d 649b 703b 69bc 2c3d e5cf d3bc
000000b0: 4526 f2bc 3ccd 32bd 57d8 573d c9fa 303d
000000c0: 9934 42bc 12ce 67bc bc45 19bd 7367 843c
000000d0: 3bbf ca3c 2914 37ba a1ec 20bd 3c22 283d
000000e0: 14cb 13bd 6aa0 04bd 65a4 61bd 10a3 0abc
000000f0: bb12 173d 12a9 9b3b c80e 883b 2061 90bd
00000100: 4fc9 40bd 5de3 263d 378e 7e3d b39e 64bc
00000110: 0c35 c13c 9f3b 22bc ecb0 3abd 5d31 00bc
00000120: 00c5 0abd 41bb 5c3b b343 e0b9 b84e d5bc
00000130: e93f 0dbd 1d62 293c 06d7 50bd 8e9c 09bd
00000140: 8e26 0e3d 090f 813d 94b6 543d d0bc e9bc
00000150: 8195 063d d6b3 2dbc bda8 20bd 3e23 a83b
00000160: b107 efbb 8a79 5cbb 390d 903c d793 35bd
00000170: d1a9 0bbd d761 873c 9e34 8dbd 3c74 febc
00000180: b846 e1bb 0267 b13c 6b91 22bd 45cf 96bb
00000190: bdce 3cbd 8b10 88bc 7bd3 1a3d 699d b9bc
000001a0: 85b7 9ebc 8323 c4bc ec88 9cbc 55e7 8b3b
000001b0: 3012 8cbc 7b6b cdbc d5e6 2f3c cdde 6c3d
000001c0: 7325 a0bb d576 6cbc d94d a8bc f7f1 403d
000001d0: 2cf6 d03c 1f55 ebba 947f 07bd 92b6 12bd
000001e0: 7a5e fdbc cbc1 c03c fa6e 263d 76ed deba
000001f0: cf60 3d3d ed3d 6f3d 0ae5 ebba e6ee 36bd
00000200: b27f 21bb d0b5 17bd 2f1e a2bc f92f e5bb
00000210: e6c3 ac3b 1f6b e5bc 7561 98bc 8dc1 18bd
00000220: a144 4a3c f441 5fbd 4b2f 823c 5948 0b3d
00000230: 31c4 14bd 6a06 52bb d3d3 993c cd32 a93c
00000240: a63d 833d 274f 413d 0f12 053d 8cfc 373d
00000250: 2f98 dfbc ab8d 623d daa7 8b3c df7d 313d
00000260: ffe6 943d 7703 d8bc 9639 b53c f003 803d
00000270: f2ef 9bbd 7539 0abd 6449 693d 2b13 d83c
00000280: 5d6d f83c e80a 55bc feeb 40b9 e481 c0bc
00000290: 8ab1 1a3c d0a9 eebc 19fd 0dbd 0439 5ebc
000002a0: 9334 82bc a3e1 13bd 1389 ec3c 6bca bd3c
000002b0: e2a5 73bd db88 babc da83 30bb 3774 29bd
000002c0: 0069 e7bc c207 7a3c 1603 bfbc c302 9c3c
000002d0: 1662 a13b 59ee 493d 3071 803c 15a1 21bb
000002e0: 51a2 87bc 0359 66bd f17a fbbb 5981 973c
000002f0: ea38 9dbc 2fdb f1bc 91ac d13b fde6 30bc
00000300: c402 fdbc 6346 ccbc e7e8 e83c 4474 fb3c
00000310: 593d 073b e8d0 973c 6a54 babc c278 493d
00000320: 36e6 293d 99d5 4d3c ee96 a63c 5126 143d
00000330: 53b5 263d 0220 04bd 4c89 013d 5b00 80bd
00000340: 205b 9b3c 77d0 a0bc 6098 4d3c e6d0 8a37
00000350: c11a 15bc b855 5d3d ca37 163d 9844 dabc
00000360: 4109 fa3b 8c05 bf3b fac5 02bd 9890 313d
00000370: dbbf 4e3d e242 9f3c f08a ea39 eaf9 4ebc
00000380: ab41 17bd e9fe 2ebd efe4 b5b9 0954 5a3d
00000390: b952 39bd e4b8 34bd 30ea bcbc a8bc 24bc
000003a0: d2ad d33c 5662 c1bc 77d8 8b3a 42e5 97bc
000003b0: b0a7 57bd a140 8bbb bb38 5d3b b7c1 1dbd
000003c0: 0564 bb3a 767c 113d c2d7 ed3c 8d7c 1ebd
000003d0: 4471 03bb d510 37bd 151e 233c fa11 25bd
000003e0: 3a21 d73c 21eb 043d b014 b53c 6157 b9bc
000003f0: 438d 103c 614d 26bd 33ef cb3c 928a ae3c
0.009286096 -0.011840915 0.037697505 -0.027292127 0.0037471391 0.009323125 0.039005168 0.0128366565
-0.033722945 0.043556884 0.03416742 0.027010093 0.015236603 0.056959867 0.016571399 -0.0733426
-0.016226871 0.0206952 -0.017530749 0.03578698 -0.018415779 -0.051340893 -0.048067864 0.026577124
0.0051295687 0.016501356 -0.012341797 -0.01529414 -0.046054866 -0.03992111 -0.024393147 0.013217983
-0.031044496 -0.07036108 -0.0077429977 -0.03470224 0.015871005 -0.011895681 -0.02217172 0.06833445
0.046778325 0.0036713714 0.04217187 -0.025855968 -0.029559264 -0.043652758 0.052696552 0.043207917
-0.011853361 -0.014148252 -0.03742002 0.01616261 0.024749389 -0.00069839 -0.039288167 0.041048273
-0.036082342 -0.032379545 -0.05508842 -0.008461729 0.036883097 0.0047503794 0.0041521527 -0.07049775
-0.047066983 0.040744174 0.062147345 -0.0139538525 0.023584865 -0.00990191 -0.045578882 -0.007824269
-0.03387928 0.0033680948 -0.0004277505 -0.026038513 -0.034484778 0.010338333 -0.050986312 -0.033596568
0.034704737 0.06301696 0.051931933 -0.028532416 0.03285742 -0.010601958 -0.03922342 0.0051311543
-0.007294618 -0.003364178 0.01758443 -0.044330444 -0.034097496 0.016526146 -0.068948016 -0.031061284
-0.0068748854 0.021655563 -0.039689463 -0.004602345 -0.0460956 -0.01660945 0.03779934 -0.022658067
-0.019374618 -0.023942715 -0.019108258 0.0042695203 -0.017098516 -0.025075665 0.010736187 0.057829667
-0.004887277 -0.014432629 -0.020544933 0.047105756 0.025508009 -0.0017954445 -0.033080652 -0.035818644
-0.030928839 0.023529908 0.04063318 -0.0017008025 0.046234902 0.058408666 -0.0017997336 -0.044661425
-0.0024642763 -0.037038624 -0.019789783 -0.006994244 0.0052723764 -0.02800518 -0.018601159 -0.03729396
0.012345464 -0.054506257 0.015891692 0.034004543 -0.036319915 -0.003204728 0.018777763 0.020654107
0.06408243 0.047194626 0.032487925 0.04491858 -0.027294246 0.055310886 0.017047811 0.04333293
0.072706215 -0.02636884 0.022122186 0.06250751 -0.07614125 -0.0337462 0.056954756 0.026376327
0.030325586 -0.0130030885 -0.00018398461 -0.023499437 0.009441743 -0.029133707 -0.0346652 -0.013563398
-0.01589421 -0.036103856 0.028873956 0.02316781 -0.05948437 -0.022770336 -0.0026934058 -0.041370597
-0.02824831 0.015260639 -0.023316901 0.019044286 0.004925023 0.04929957 0.015678972 -0.0024662663
-0.01655689 -0.056237232 -0.007674568 0.018494295 -0.019192178 -0.02952346 0.0063987453 -0.010797259
-0.030885108 -0.024935907 0.028431369 0.030695088 0.0020635931 0.018532231 -0.02274533 0.04918743
0.041479312 0.012563133 0.02033564 0.036169354 0.040700268 -0.032257088 0.031625077 -0.06250068
0.01896435 -0.019630654 0.012548536 1.6548158e-05 -0.009100617 0.054036826 0.0366743 -0.026644036
0.0076304977 0.0058295187 -0.031927086 0.043350786 0.050475936 0.019441072 0.00044735475 -0.012632826
-0.03692786 -0.04272357 -0.0003469358 0.0533028 -0.045244906 -0.044121638 -0.023060888 -0.010054745
0.02583972 -0.02360646 0.001066937 -0.018541936 -0.052650154 -0.0042496477 0.0033755738 -0.03851482
0.0014296776 0.035519086 0.029033545 -0.038693 -0.0020056525 -0.044693787 0.009955903 -0.040300347
0.02626096 0.0324508 0.022104591 -0.022624673 0.008822742 -0.040601138 0.024894333 0.02130631
