gan_modals/checkpoints/discriminator.pth (torch, 620038 bytes, 12 tensors)

rnn.weight_ih_l0 f4 [384, 12]
00000000: c339 02bd d8bc 49bc 8d65 b33c 6877 3fbd
00000010: 51fb 663d 8d7e abbd d4fe 163d 3772 a0bc
00000020: 3d9c bfbd 0d91 3abd 1c91 01be ee1e bdbd
00000030: a0dc efbc 322f 913d c437 59bd b391 bc3c
00000040: 1c53 533c fcd5 433c 4e61 7dbd 37dd 223d
00000050: 11d9 36bd 8f3b 023b 9cef e23d e90c 1d3d
00000060: 6d0c b4bc e780 65bd ec5a 56bd 3354 f3bc
00000070: 5fd4 d93c 3eac 8abd d4e9 2a3d e4a0 303d
00000080: fe2b 7dbd 98d9 18bb b942 4fbc a8a5 8c3d
00000090: 7b66 7fbd 641b 60bd 57c8 54bc 8308 25bc
000000a0: c649 e9bc 9892 babd 3b00 0e3d 11eb 863d
000000b0: 7f66 5839 1c12 10bd 971b a63c 3e2b d4bd
000000c0: f12b c7bd 9e19 063d 8590 9bbd 5aee cb3d
000000d0: 5777 24bd d795 8d3d 28d6 7ebd caef 223c
000000e0: 0770 603d c239 2dbd abd3 45bd 6005 e1bc
000000f0: 2d46 493c 4b51 1cbd c55a 613c 6836 aebd
00000100: cf7e a3bd 29ae b9bc 589d 5f3d 8a27 bc3d
00000110: a131 d93d 5461 c63d 4f06 653d 2964 2fbd
00000120: efd9 c1bc eac1 883d b73a 31bb 9291 f43c
00000130: 0356 bf3d 616c bc3d 08b4 313c 8397 c5bd
00000140: 5ead 6abd 3e63 c7bd 498f d23c c822 5fbd
00000150: 5d99 6b3c 259d 993d b6e9 fcbc fdc7 4839
00000160: defb dabc d34b 59bd d722 49bb 1e17 a83d
00000170: 182f ee3d 6e0c 9f3b fa33 e13c fcca 19bd
00000180: 71da 71bc 7fe6 9b3d 2637 b33c 2711 683d
00000190: b62c 5abd e022 2639 0719 3d3c a0d5 d53d
000001a0: 87b8 d93c 5107 af3b 440f 6f3d 3b9a 82bd
000001b0: a76b 74bd cb8b c63c 63af 38bd 40f0 f2bc
000001c0: e532 c13b b188 b9bc a17e 8dbd 9787 193d
000001d0: d506 acbc b286 e9bb 9d68 76bd 7f7e 773c
000001e0: b6a3 c4bd e670 9fbd a51a 1a3d 3b2c 39bd
000001f0: 9704 c83d 6112 30bd 70bb a13a 7ed7 983c
00000200: 02d5 b73c b2a7 9d3d dcff ebbc 344f ae3b
00000210: 14c4 5d3d 7249 473d 7d04 19bc 8fea 613d
00000220: ef30 f4bd b3a4 a03c 0f68 cf3b bf65 e4bb
00000230: 21ce 853d 5803 de3c 7072 e53d 7ec9 aebc
00000240: b0d9 a5bd a19b a4bd 5a34 bebb 8134 ecbc
00000250: 25d6 a03c cedd bdbb 0162 c13c 772d b13d
00000260: 5dce b33c b685 183c bb90 b83d a536 98bb
00000270: 8c7b e2bc 229f 843d 18ce 04bd 145b dd3c
00000280: eceb f1bd 6282 453d f57b 143c 549a de3c
00000290: be6e 03bd 7156 693d df59 ed3b 8fd8 71bd
000002a0: 86ee 04bd 3fc1 703b 8c19 94bc ff6f 68bd
000002b0: 1e05 90bd 4aca 503d f242 953d 5c0f 0b3c
000002c0: 2ceb 0c3d 64a4 65bd d44e a3bc 074a c63d
000002d0: 4dd0 743d fe07 393d 2af9 4d3d eba6 a1bd
000002e0: bd53 30bb cf30 363d 2d28 f1bc a074 903d
000002f0: 7d44 b63d 7fb6 7f3d 761f 1abc a2aa ec3b
00000300: 843c adbd 0ef9 1a3d 436f b7bd 5758 983d
00000310: abac 92bd 8c3d a3bd 9f17 83bd a3c0 a0bd
00000320: 30ba 5a3d fcf7 453d 596f 85bb 036e b93d
00000330: 8100 5c3d 7efd b93d 174f 6cbc c3bc 86bd
00000340: 333f b6bb ce67 3e3d 8972 a93d a3f3 773c
00000350: 6fff 173c 3f18 ee3b 6075 07bc b506 0a3d
00000360: c089 d3bd 8a7a 573d b04a 93bd 53f9 be3d
00000370: d818 103e 745a 3abd aafd 63bc 04bb c2bc
00000380: be72 1d3d 10f0 0e3d 617a 54bd 69d4 4a3d
00000390: 3192 14bc 06fe 893b d3b3 b8bd 1eaf 00be
000003a0: e6f2 a43d b84d 0f3c edcd da3c a53a 093c
000003b0: 57ee 28ba b9cc c4bd e592 37bd fbd0 88bd
000003c0: d9d2 c6bd b2c5 093d 84a1 a0bd d849 a53c
000003d0: 7163 343d 2d5e 70bd 0ad3 32bd 1b48 d83b
000003e0: 649e bd3d f987 85bd b633 89bc da78 323d
000003f0: c3ec 013d d65e 5f3c 6ecb b03b 49ec 453c
-0.031793367 -0.01231309 0.02189901 -0.046744734 0.056392018 -0.08373747 0.036864117 -0.019585712
-0.09355972 -0.045548487 -0.12653011 -0.09234415 -0.029280007 0.0708908 -0.053031698 0.023018694
0.012898233 0.011952873 -0.061860375 0.03976175 -0.044640604 0.0019871925 0.11080858 0.03834239
-0.021978581 -0.056031134 -0.052332804 -0.029703235 0.026590524 -0.06771134 0.041726902 0.043122187
-0.061809532 -0.0023323055 -0.012650185 0.06867534 -0.062353592 -0.05471362 -0.012987218 -0.01007283
-0.02847756 -0.09109992 0.03466819 0.06587804 0.00020637548 -0.03517352 0.020276828 -0.1035981
-0.09725178 0.032739274 -0.07595924 0.09957571 -0.040152874 0.06913345 -0.062215954 0.0099448655
0.054794338 -0.04229141 -0.048297565 -0.027468383 0.012284798 -0.038163465 0.013754551 -0.08506471
-0.07983171 -0.022666054 0.054593414 0.09187229 0.10605169 0.096865326 0.05591422 -0.04282013
-0.02366349 0.06677611 -0.0027043053 0.02985457 0.09342577 0.09200359 0.010846145 -0.09648039
-0.057294242 -0.09735726 0.02570309 -0.05447653 0.014379826 0.07500676 -0.03087316 0.00019147988
-0.026731428 -0.053050827 -0.0030690932 0.08207534 0.11630076 0.0048537767 0.027490605 -0.037547097
-0.014761553 0.07612323 0.021876883 0.056656983 -0.053265296 0.00015843986 0.0115416115 0.10441136
0.026577247 0.0053414484 0.058364168 -0.063770734 -0.059672978 0.02423658 -0.045089137 -0.029655576
0.0058959597 -0.022648187 -0.06908918 0.037482824 -0.020999352 -0.0071266526 -0.06015836 0.015105843
-0.09601538 -0.077852055 0.037623066 -0.045208197 0.097665004 -0.042986277 0.0012339186 0.018657442
0.022440437 0.07698001 -0.028808527 0.0053195003 0.054142073 0.048654027 -0.009339449 0.055155333
-0.11923396 0.019609785 0.0063295434 -0.006970137 0.065334566 0.027101204 0.11203468 -0.021336313
-0.08098161 -0.08037496 -0.0058045806 -0.02883363 0.019633362 -0.0057942634 0.023606302 0.0865125
0.021948988 0.009309223 0.0901198 -0.004645186 -0.027646802 0.06475665 -0.03242311 0.027020968
-0.11812577 0.048220046 0.009062757 0.027173199 -0.032088034 0.056967203 0.0072433795 -0.059044417
-0.032454036 0.0036736277 -0.018078588 -0.056747433 -0.07032226 0.050974168 0.072881594 0.008487549
0.034403965 -0.05606498 -0.01993505 0.09682088 0.059768964 0.045173638 0.05028645 -0.07893165
-0.002690538 0.04448014 -0.029438103 0.070534945 0.08899782 0.0624299 -0.009406915 0.0072224895
-0.08458808 0.037835173 -0.08956768 0.074387245 -0.0716184 -0.079707235 -0.0640099 -0.078492425
0.05340022 0.0483322 -0.0040721116 0.09054186 0.053711418 0.09081553 -0.014423153 -0.06578972
-0.005561733 0.046485715 0.08273799 0.015133771 0.009277209 0.007266074 -0.0082677305 0.033697803
-0.10329008 0.052607097 -0.0719198 0.093248986 0.14071977 -0.04549642 -0.013915459 -0.023770817
0.038439505 0.03489691 -0.051874522 0.049518976 -0.009068058 0.00421119 -0.09018674 -0.12566802
0.08054142 0.008746557 0.026709521 0.008375798 -0.0006444207 -0.0960936 -0.044817824 -0.06680485
-0.09708185 0.033635803 -0.07843307 0.020176813 0.044040147 -0.058683563 -0.043658294 0.0066003925
0.09258726 -0.06520075 -0.01674829 0.043572284 0.031719934 0.0136334505 0.0053953445 0.012080261

rnn.weight_hh_l0 f4 [384, 128]
00000000: d546 9e3d 56b3 6c3d 6c81 ba3c 0089 d7bc
00000010: 674b 9c3d 5094 a4bc 5055 49bd 2876 de3c
00000020: 8cb3 cebc a3e1 9bbd dc5c a33c ca7d 193d
00000030: c518 983d e719 71bd 00c6 cbb9 c472 ce3c
00000040: 7d19 24bd 0136 963d 1c8a afbc a8a8 6abc
00000050: 5817 713c 58ea fd3c f4be 89bc a246 353d
00000060: 6c3e 8fbc cc9f d73c 90c1 bf3c 3b1f b03d
00000070: 40c2 29bb 54d7 af3c b683 523d 3cf5 3fbd
00000080: 8947 97bd 8af5 1abd f80e 893c 6e2d 173d
00000090: 8ac4 9bbd 8327 b0bd 621a 8ebd 136f b4bd
000000a0: 65b3 a43d 7b19 abbd aeb9 1cbd 6667 5ebd
000000b0: f5e8 b13d 28e8 453c 068e 5d3d d281 163d
000000c0: b0dd 5bbc 927b 423d e041 bb3b 18fe 58bc
000000d0: 5151 ac3d fa76 38bd e0e3 c93c 3bbd a8bd
000000e0: 61b0 9b3d e00c 04bd 12a9 08bd 43fe b03d
000000f0: 67ef 08bd f021 ed3c 4609 6f3d c0fd 753c
00000100: 654a 863d 107d f6bc 82c5 b0bd 6292 65bd
00000110: 2ea3 7e3d 09f9 76bd 94b5 853c 407f bbbc
00000120: 9e43 0dbd 6c8d 5dbd 00f8 a3ba dea9 683d
00000130: 1aa1 5b3d 62f1 513d 0796 44bd 3bd5 a63d
00000140: 0c12 c7bc f87f 653c 85b0 a43d 496e b33d
00000150: c832 fd3c 520e 22bd 9fe1 8dbd 0e48 1b3d
00000160: dc60 88bc 0082 41bb 7858 153c 9899 70bd
00000170: f648 1d3d 405d 40bc 5054 413c f7f5 28bd
00000180: 7962 b33d 998f 44bd faab 7e3d a7cc b4bd
00000190: 9ed1 a4bd 2040 fc3c a0fd 793b f6ab 233d
000001a0: 08f6 50bd d0f4 bebc b894 f33c 60ff 96bb
000001b0: 93e8 b1bd 0020 7f38 8efa 2a3d 201e d13c
000001c0: 409f 5cbb 26e2 29bd 54c3 94bd ea78 97bd
000001d0: c060 4ebb fc85 863c da3e aebd 180b f83c
000001e0: 7aae 123d 8ca9 0b3d 5484 72bd b3b7 ab3d
000001f0: 77dc 2abd 18a6 0d3d 15c6 a03d 18bb 483c
00000200: b376 30bd 694b 1fbd 329b 66bd 26fd 41bd
00000210: 7cd5 013d b200 013d 9fb3 9ebd 4ce2 33bd
00000220: 5677 5fbd 3362 a33d a014 2abc d0f8 eb3b
00000230: c6f1 6f3d 48d0 a5bd 1a3f 6c3d a459 96bc
00000240: a221 a4bd 0054 05bd 1040 c93b 680b 8fbd
00000250: 4e19 96bd 902c 9a3c 0726 853d 0018 3cb8
00000260: 6ad3 623d fc10 e13c 8c2a 9b3c 5037 abbb
00000270: 6939 08bd 2cd0 88bc 2795 3ebd 7693 f7bc
00000280: 08db 603c a34e 863d 769a 54bd 9005 a13c
00000290: 53e7 a9bd 5875 753c 94c1 963c 6b7b b13d
000002a0: 9e93 453d 4e85 0f3d 0228 2b3d 3045 f2bb
000002b0: 0232 7cbd 207a fb3b 5ee5 4a3d 1fea 2cbd
000002c0: 8f7b 15bd b61d a3bd 6068 5abb 8c96 fc3c
000002d0: 005e 873a 7d8b 843d 6b5c 57bd 2ea0 5b3d
000002e0: 2147 803d 3288 febc 1fbe 68bd d135 983d
000002f0: 921d f7bc 7a67 6e3d e03f e5bc c2e0 5f3d
00000300: a3f7 5abd 2879 77bd 5847 abbc 6893 cbbc
00000310: 005a 503c 936c b1bd 2051 e5bb a733 9a3d
00000320: 7e7e 6cbd 0493 93bc fd26 933d 9e06 09bd
00000330: eac7 0b3d b242 85bd 5c0d d8bc 2626 103d
00000340: d02f a5bc 78c9 89bd 962d 513d f4b3 0e3d
00000350: 4e8c e9bc 10d5 9abd 47d6 11bd f06d 983b
00000360: 40c4 a33a 0994 2bbd a8e2 5cbd 5e2b 7abd
00000370: 0085 88b9 0099 dc3b f07c aabd 28e1 053d
00000380: 2f1b 8abd c0c2 c93c 2138 94bd 2dc8 9b3d
00000390: a25f a8bd 8ece 7f3d e2b8 403d 6b22 a63d
000003a0: e04f 613b b551 6bbd fe95 7a3d 3156 9c3d
000003b0: d4a5 a6bd 5c6e 68bd 5a8c 2cbd ccef 1ebd
000003c0: 3051 803b 80f8 18bc 3914 69bd 4a4b 423d
000003d0: 78cc 5c3c 0b5c b13d 1090 82bd 60a8 c6bb
000003e0: 9ad7 33bd 61db 9dbd aa6a 50bd d2ad 263d
000003f0: 989a 80bd 6863 ad3c 0ee7 143d 56c5 693d
0.07728354 0.057788216 0.022766791 -0.026310444 0.07631569 -0.020090252 -0.049153626 0.02715595
-0.025232099 -0.07611396 0.01994174 0.037473477 0.074265994 -0.058862593 -0.000388667 0.025201209
-0.04006337 0.07334519 -0.02142816 -0.014322437 0.014715038 0.030995533 -0.016814686 0.044256814
-0.01748582 0.026321314 0.023407727 0.08599707 -0.0025903136 0.021464981 0.05139514 -0.046864733
-0.07386691 -0.03783182 0.01673077 0.03690856 -0.07605846 -0.08601286 -0.06938626 -0.08810248
0.08042029 -0.083544694 -0.038263015 -0.054297827 0.08687011 0.012079276 0.054090522 0.0367449
-0.013419554 0.047481127 0.00571464 -0.013244174 0.084139474 -0.04503534 0.024644792 -0.08239218
0.07602001 -0.03223884 -0.033364363 0.086422466 -0.033431437 0.028946847 0.058358453 0.015014112
0.065571584 -0.030088931 -0.086314216 -0.056047805 0.06216734 -0.060296092 0.016321935 -0.022887826
-0.034488313 -0.05408995 -0.0012509823 0.056802623 0.053620435 0.05125559 -0.04799464 0.08146139
-0.024300598 0.014007561 0.08041481 0.087612696 0.030908003 -0.03956444 -0.069277994 0.037910514
-0.016647749 -0.002952695 0.009115331 -0.05874023 0.03839966 -0.0117409825 0.011799887 -0.041250195
0.087590165 -0.047988508 0.06217573 -0.08828097 -0.08047794 0.030792296 0.0038145557 0.039958917
-0.051015884 -0.023310095 0.029734 -0.00460808 -0.08686938 6.082654e-05 0.041742854 0.02552706
-0.0033664256 -0.041475438 -0.072638184 -0.073961094 -0.0031490773 0.01642131 -0.08508082 0.030278727
0.035810925 0.03409724 -0.05920823 0.08384647 -0.041714158 0.034582227 0.07850281 0.012251638
-0.04308195 -0.038890276 -0.05630035 -0.04736056 0.031697735 0.031494804 -0.07749104 -0.043916985
-0.054557167 0.079777144 -0.010380894 0.0072012916 0.058580182 -0.08096367 0.057677366 -0.01835329
-0.080142274 -0.03255081 0.00614167 -0.069845974 -0.07329045 0.018820077 0.06501394 -4.4845045e-05
0.0553774 0.02747392 0.018941186 -0.0052250996 -0.033257876 -0.016700827 -0.04652896 -0.030221682
0.013724096 0.065579675 -0.051905118 0.019655973 -0.08296075 0.01498159 0.018402852 0.08666118
0.04823648 0.03503924 0.0417862 -0.0073935017 -0.06157113 0.0076744705 0.049535148 -0.042215463
-0.036494788 -0.07964651 -0.0033326373 0.030833505 0.0010327697 0.06471918 -0.05257837 0.053619556
0.06263567 -0.031070802 -0.05682194 0.0743214 -0.030165467 0.05820415 -0.02798456 0.054657705
-0.05345882 -0.060418278 -0.020908043 -0.024850562 0.01271677 -0.08663287 -0.0069981962 0.07529383
-0.05773782 -0.018014438 0.07185171 -0.033453576 0.0341262 -0.06506862 -0.026373558 0.03519263
-0.0201644 -0.0672788 0.051068865 0.034839585 -0.028509285 -0.0756017 -0.03560474 0.0046517774
0.00124944 -0.041889224 -0.053927094 -0.061076514 -0.00026039034 0.006732106 -0.08324611 0.03268543
-0.06743466 0.024628997 -0.07237268 0.0760654 -0.082213655 0.062452845 0.047051318 0.081120335
0.0034379885 -0.05745097 0.0611782 0.07633627 -0.08137098 -0.056745872 -0.042126037 -0.038802907
0.0039159283 -0.009336591 -0.05690405 0.047435082 0.0134764835 0.08660134 -0.06375134 -0.0060625523
-0.043906786 -0.07707859 -0.050882973 0.04069311 -0.062794864 0.021165565 0.036353163 0.05707296

rnn.bias_ih_l0 f4 [384]
00000000: e851 403d 9ea1 24bd 635f 9cbd d7bb 813d
00000010: 030f 83bd 16f5 9a3d 0080 80bd 9b20 c73c
00000020: bf80 573d 6489 513d 9dc4 97bd 4a4e 7cbd
00000030: e605 01bc 28c0 8ebd 8dc9 28bd 7113 b3bd
00000040: dec8 7b3d 1264 7dbd d208 a0bd e469 823c
00000050: 1ec3 c6bd d947 a5bb 41eb a03c d4c9 9bbd
00000060: 7e69 b8bd 3d50 a1bd ca95 0abd bc00 92ba
00000070: 3f67 16bd dc91 f3bd 5ec1 c33c 6abb e63d
00000080: bbae 52bd d55f d73c 8c2b c9bc 87c5 48bc
00000090: 3d03 9a3d 25ff 423b 7026 3c3c fbe0 ec3d
000000a0: 379a 9d3b 873e 24bd e203 03bb 292b 263d
000000b0: 7deb 64bd 6126 2f3d 6901 223d 223b a5bd
000000c0: 557b 653d 8959 c23d acfb 14bc 3f2d 823d
000000d0: 4f79 e13c 623e 77bc 2c12 c83c 8096 d83d
000000e0: abb1 073d 0de9 9ebd 6bbe 823c 836d fa3c
000000f0: da6b 17bd 6798 8bbb 9168 a7bd 829b 6d3d
00000100: 4848 553b e7b3 0dbc ec76 913c eec6 88bc
00000110: 9587 21bd fadc 8fbc d37f 86bb 0b0c 08bd
00000120: 6bf6 dd3d 139e cebd a1b6 d73d d823 b03b
00000130: 5484 52bd 4048 483d a57d e03c 66a3 66bd
00000140: 334e 2ebd fce0 7c3d 850a 39bd aa10 5a3d
00000150: 39e2 b83c 54d3 653c b3d8 acbd 7d94 bdbd
00000160: 215e 30bc 142e a7bd 31e9 083e b9da 593d
00000170: 0dd2 53bd 9aef 8f3d d969 a0bd 840b c43d
00000180: 07a8 853d 8ee8 cf3c 26e3 89bd fc7c 5dbd
00000190: 45a3 fdbc e652 cabd 3ff3 a7bd 1a14 023d
000001a0: c284 323d 4d3e d2bc 09e8 dabc a256 ab3d
000001b0: 14cf 853c 0d9f 8cbd 83cf 213c 2df7 e4ba
000001c0: a3a6 343d 1a06 0cbd e707 19bd 1474 863d
000001d0: 9dd2 2fbd 93a1 943d 116e 86bd 3119 8fbd
000001e0: 20b4 113d 1f2d edbd 32b2 9c3d 07af 2abc
000001f0: b368 aebd 4b87 c73c 9d31 a23c 49a3 c1bd
00000200: 6541 7f3d 1616 7bbd ff2e 21be 884e 373d
00000210: 2e36 db3b 7bb5 67bd 283f 31be e00f a03c
00000220: bc14 a1bd a019 e7bd b9f6 a53d 8876 e13c
00000230: bb8d 0ebe 3842 d5bd 0c4b 93bd 8e23 59bd
00000240: 18b4 583b 7a0d 73bd 1c74 bebc a41a abbd
00000250: e563 d3bc dc50 833c 0f4e d6bb 2eeb 32be
00000260: ea6c 2d3c d422 a0bd 22d3 ebbd d53c 11bd
00000270: eac6 d2bd 3a3c 88bd 1655 dabc 9ca6 b3bd
00000280: 9811 05bd 4cc1 30bd 4c61 633d 8235 8fbd
00000290: f130 1dbe 7776 083a 1d8a e0bd 5f29 c8ba
000002a0: efa3 11bd a015 19be f94d a5bd 818a 7ebd
000002b0: a35b b73c d562 1dbb c1c7 25be 5e3b 1dbd
000002c0: 01aa a0bc 0964 c0bd 21cb 32bc 8eea 80be
000002d0: 18a0 3dbe db3c b5bd 293e fabd c45c 9b3d
000002e0: 7693 20bd 21b8 b5bd ab94 63bc 156e afbd
000002f0: 5662 24bc deec cbbc 0393 cf3b 33c0 d93c
00000300: d33a ddbd 9356 08bd 2e74 92bd 9858 6e3d
00000310: ec97 633d a2f5 b63b 2d0d 33bc 8229 4cbe
00000320: 89c2 8e3c 03ad dc3c 4f48 1ebe 7c72 9bbd
00000330: 2a9f a9bd aa53 3bbd d815 5dbe f21e 0bbe
00000340: 8457 70bd 4138 46be 6649 65bd a141 4cbc
00000350: 2a8e c0bd 4b94 b3bd 402d b03d 425e 16be
00000360: dde4 353d c5a8 8fbd feb8 5cbc fb1b b3bc
00000370: 6ad5 1fbe 5fa4 d7bc 8ee7 ce3c 4a62 de3c
00000380: dbc1 b5bc 5b77 8dbd 1854 5abd 13da b73d
00000390: 38fd 13bd aa06 ddbd 9a0e 823d 596d eabc
000003a0: c2a4 dfbd 50cd c23d 61a9 babd 557d 42bc
000003b0: 1f69 abbd c2bd c4bd 4f48 80bd 9d09 4b3d
000003c0: 2a96 cdbd d142 94bd bffc 1d3c 8012 57bd
000003d0: f92f 24be 398f 36be fe12 d7bd 6abe ddbd
000003e0: b284 acbd c878 d63d d443 06be 3e55 1a3d
000003f0: 57a4 26be ae6c b73d 7af4 093d 4f3b 31be
0.046953112 -0.040193193 -0.07635381 0.06334656 -0.06399348 0.07566278 -0.06274414 0.02430754
0.052613016 0.051156417 -0.07410548 -0.0615981 -0.007874941 -0.06970245 -0.04120784 -0.087439425
0.06147086 -0.061863013 -0.07814182 0.015919633 -0.097051844 -0.0050439653 0.019643428 -0.07606855
-0.09004496 -0.07876632 -0.033834256 -0.0011139135 -0.036719557 -0.11893055 0.023895916 0.11266215
-0.051436167 0.026290813 -0.024556898 -0.012254125 0.07520149 0.0029754129 0.011483774 0.11566349
0.0048096436 -0.040098693 -0.0019991328 0.040568504 -0.05588864 0.04276121 0.039552126 -0.08067919
0.05602582 0.09489734 -0.009093206 0.06356286 0.027523665 -0.015090557 0.024422728 0.105755806
0.03312842 -0.07759295 0.015959939 0.030569797 -0.03696809 -0.004260111 -0.08174241 0.058009632
0.0032544304 -0.008648849 0.017756902 -0.01669642 -0.03943594 -0.017561425 -0.0041045933 -0.03321461
0.10838016 -0.10088744 0.105328806 0.0053753667 -0.05139573 0.048897028 0.027403662 -0.056308173
-0.042555045 0.061738 -0.045176048 0.05323855 0.022568809 0.014027435 -0.084397696 -0.092568375
-0.01076463 -0.081630856 0.13370205 0.053187106 -0.051713992 0.07028122 -0.07832689 0.09572509
0.06526189 0.025379445 -0.06732778 -0.054074273 -0.030961642 -0.09879093 -0.082006924 0.03175745
0.04358364 -0.025664473 -0.026721971 0.08366133 0.016334094 -0.06866274 0.009876135 -0.0017468684
0.04410423 -0.034185506 -0.037361052 0.06565109 -0.042925466 0.0725738 -0.06563962 -0.06987227
0.03557217 -0.11580872 0.076511756 -0.010417706 -0.085160635 0.024356505 0.019799048 -0.09454972
0.062318224 -0.06130036 -0.15740584 0.044752628 0.0066898083 -0.056569558 -0.17309248 0.01953882
-0.07865283 -0.112841845 0.08103699 0.02752234 -0.13921253 -0.10413021 -0.071920484 -0.053012423
0.0033066329 -0.059339024 -0.023248725 -0.08354691 -0.02580447 0.016029768 -0.006540067 -0.17472526
0.010585049 -0.07819143 -0.1151488 -0.035458405 -0.10291846 -0.06652112 -0.0266519 -0.087720126
-0.03248748 -0.043153092 0.05551271 -0.06992628 -0.15350701 0.0005205641 -0.10963843 -0.0015271119
-0.03555673 -0.14949656 -0.08071513 -0.062143806 0.022382563 -0.0024015207 -0.16189481 -0.038386695
-0.019612314 -0.0939408 -0.0109126875 -0.2517895 -0.18518102 -0.08849498 -0.12218887 0.07586053
-0.03920313 -0.088730104 -0.013890426 -0.08565918 -0.010033211 -0.02489322 0.006334664 0.026580906
-0.108022355 -0.03328569 -0.07151066 0.05818996 0.055564806 0.005583481 -0.010928434 -0.19937709
0.017426746 0.026937967 -0.15457271 -0.075901955 -0.08282311 -0.045734085 -0.21590364 -0.13586023
-0.05867721 -0.19357397 -0.0559782 -0.012466819 -0.09402116 -0.08768519 0.08602381 -0.14684394
0.044407714 -0.07014612 -0.01347184 -0.021863928 -0.15608755 -0.026323495 0.025256898 0.027146477
-0.022187164 -0.06907531 -0.053302854 0.08977141 -0.03613016 -0.10792287 0.06350441 -0.028616594
-0.10920097 0.095118165 -0.09114338 -0.011870702 -0.0836966 -0.09606506 -0.06263792 0.049569715
-0.10038407 -0.07239307 0.009642779 -0.052507877 -0.16033925 -0.17828073 -0.10501669 -0.10827334
-0.08423747 0.10472256 -0.13111812 0.03767895 -0.16273628 0.08956276 0.033680417 -0.1730778

rnn.bias_hh_l0 f4 [384]
00000000: ceb5 883d c83f 5bbc 6958 013d 50e4 e33d
00000010: a970 4b3d 88a9 1dbd bc5e d0bc 3576 6d3d
00000020: 8deb f33d e9a8 983c 7ca9 813c 9475 973d
00000030: 1fff 22bd 159d 913d 6c62 a7bc b715 933d
00000040: 5075 92bd c55e cb3c 9811 62bd 51f2 98bd
00000050: b4c1 8e3d 2f28 093d c5fe 09bc 9524 253d
00000060: b66a a7bd 38ba 65bc eb0f 85bd 5d28 a4bd
00000070: 0911 28bd cf88 463d c050 9ebd fe01 f3bc
00000080: 9872 ddbc 8730 92bd c8c4 8bbd 8efa 09bd
00000090: a309 b83d d668 c1ba b6c0 89bd ccaa 103d
000000a0: 003e 9fbb 277f 60bd 286b 45bc 9239 80bd
000000b0: dd8d 8fbc d5e6 b63c 3f0f 3f3d 7015 8a3d
000000c0: 0406 2bbc 56b3 d13c 2266 ffbd f576 e0bc
000000d0: 1489 fa3c 5692 543d 1f2a 78bd 364f 0a3c
000000e0: dd23 62bd 29df 9a3d 286e 8dbd 4cc8 543b
000000f0: 5957 1fbd 5f89 96bd 98a1 9abb a8a9 ccbd
00000100: c23a 81bb c2e8 103d 31fa 973d 5ac1 8c3d
00000110: e0e1 47bd 7000 f7bc f141 823c e2f4 4abd
00000120: 4cb0 183d 2ee2 df3b 8677 07bd edf6 443d
00000130: a4f6 373d 68e5 e03c 03a9 843c 74d5 383c
00000140: ccb5 443d f63d 1ebd 897e 6ebd 10e5 f9bc
00000150: c7b8 813d be88 e5bc 6d9d 853c 29cd 04bd
00000160: 1cb8 a8bc 22bc 7cbc f685 4cbc 362d b03d
00000170: 7fe9 f43d e625 f23c 6dae 7dbc 40d2 a63c
00000180: ea45 b1bd 6950 913d 9e62 89bd 1c99 91bc
00000190: e733 063e 327a a9bb 519f 74bc b6bf b7bd
000001a0: 953a 903d af70 f9bd 18c8 c03c 6b25 b93c
000001b0: ed04 efbd b608 54bd 9c13 29bd c988 a03d
000001c0: 53c7 653b 2f29 3abd 4469 ec3c f7ce 2bbd
000001d0: a455 91bd 0737 a3bc 29e7 b2bc b34d 6e3c
000001e0: 3312 48bd dede cabd e419 223d 2b87 bbbc
000001f0: a17a 29bd 5c06 79bd 532e e1bc c4f8 39bd
00000200: 9aff 28ba 7834 1cbc dbe6 4bbd fac6 ab3d
00000210: d0c8 63bb ddd5 db3c ab20 35be 0d2c d6bc
00000220: 2f4f 1dbc b506 a9bd 7d34 363d 5d24 22bb
00000230: 3a5a debd 846b 2f3d b12f a4bd b309 67bd
00000240: fa49 1b3d 9b04 12bc 9ecf 2bbe f8e8 13be
00000250: 5c3d 8e3c 2e33 1dbd 03f4 c3bd b929 c8bd
00000260: aa78 c13c 0980 dabd 046d 07bd bd55 babd
00000270: aa81 863b da74 dfbd 43dc aabd f9dd 01be
00000280: 44fe 4abd 2d4a 84bd 8871 58bd e553 d73b
00000290: 0ca6 1cbe 37fd 66ba ea08 acbd 33c2 b4bd
000002a0: be6a 14bc a4ba 77bc 8e22 11bd fc7b 3dbe
000002b0: 9403 9d3d 65ad bbbd 1788 a0bd f1b3 8cbd
000002c0: 8d58 55bb d63f 763d d6bb 84bc 548c 32be
000002d0: d667 aabd 6be1 56bd 0e04 acbd f179 733d
000002e0: f8ec 9cbd 1ce2 81bd d438 f8bd 9a95 ebbd
000002f0: b164 e83c ddb6 883d 0b96 5d3c c006 b2bd
00000300: d55e 02be 1b1f 8cba 6762 31bd 7937 43bd
00000310: 0ad2 bebd 1c81 1bbd e83f be3c dec6 c5bd
00000320: c2fe d83c f8a2 9ebd 5b86 8dbd 96df 433d
00000330: 8384 9bbc 1be3 233d 7105 8dbd b059 ccbc
00000340: 7b34 3abb 5134 58be d0e0 40be bc09 8fbd
00000350: c6f4 b5bb 25bc c5bd 98ac ba3d 00e6 cebd
00000360: 6beb 8e3d 12f8 eebd f5d8 493d b019 5e3c
00000370: 185c 39be c90e 9dbd df55 83bc ef76 603d
00000380: c823 293d 77ea 51bd d21e 21bd f956 f1bb
00000390: 18f4 b9bd 41af 40be ce48 4ebc 4425 b5bc
000003a0: bf97 883c b073 fabb de88 f7bc 37ba 6bbd
000003b0: d5ad 65bd d6c7 18bd 6175 38be 073b 673b
000003c0: dee1 7cbe c881 f43b bf6e 9a3c fbda b03c
000003d0: ee46 5fbd ff34 e7bd 61bd 2bbe 0cb7 5bbd
000003e0: 5259 653b 6201 34bd d281 bebd f127 a03d
000003f0: 3f59 30be 2d0e 513c 96aa abbc 0837 d1bd
0.066753015 -0.013381906 0.031578455 0.111275315 0.049667988 -0.038491756 -0.025435798 0.05797406
0.11910162 0.01863523 0.015827887 0.07395473 -0.039794084 0.07110039 -0.020432673 0.07181876
-0.07151282 0.024825463 -0.05519256 -0.07468093 0.0697054 0.033485588 -0.008422558 0.04031809
-0.0817465 -0.014021449 -0.06497177 -0.08015511 -0.04103187 0.048470315 -0.077302456 -0.029664036
-0.027032182 -0.07138162 -0.068246424 -0.033686213 0.08986213 -0.0014755975 -0.0672621 0.035319135
-0.004859686 -0.054808762 -0.012049474 -0.06260981 -0.0175237 0.022326866 0.0466454 0.0674237
-0.010438446 0.02559821 -0.12470652 -0.027400473 0.030582942 0.05189737 -0.060587045 0.008441737
-0.055209983 0.07562096 -0.06905776 0.003246802 -0.03890166 -0.0735042 -0.0047189705 -0.09993297
-0.003943772 0.035378225 0.07420767 0.068728164 -0.048799396 -0.030151576 0.015900584 -0.049549945
0.037277505 0.0068323826 -0.03307297 0.04808705 0.04491295 0.02745314 0.016193872 0.01128136
0.048024938 -0.03863331 -0.058226142 -0.030504733 0.063340716 -0.028019305 0.016310418 -0.03242222
-0.020595603 -0.015425714 -0.012483111 0.08602373 0.11958598 0.029559087 -0.015483481 0.020363927
-0.08655913 0.07095415 -0.06708263 -0.017773204 0.13105737 -0.0051720375 -0.014930562 -0.08972113
0.07042424 -0.12179696 0.023532912 0.02260085 -0.116708614 -0.05176612 -0.041278467 0.0783859
0.0035061433 -0.045449432 0.028858788 -0.041945424 -0.07096413 -0.0199237 -0.021838741 0.014544892
-0.04884548 -0.0990579 0.039575472 -0.022891602 -0.041376714 -0.06079708 -0.02748791 -0.045403257
-0.0006446779 -0.009533994 -0.049780708 0.08387561 -0.0034757145 0.026835376 -0.17688243 -0.026144052
-0.009601398 -0.082532324 0.04448365 -0.0024740912 -0.10857053 0.042827144 -0.08016909 -0.056405734
0.037912346 -0.008912231 -0.16778418 -0.1444434 0.017363243 -0.038378887 -0.09568026 -0.09773583
0.023617107 -0.10668952 -0.03306295 -0.090983845 0.0041048126 -0.109109595 -0.08342793 -0.12682332
-0.049558893 -0.064594604 -0.052842647 0.0065712803 -0.15297717 -0.00088115357 -0.08400138 -0.08826103
-0.009058652 -0.015120182 -0.035433345 -0.18504328 0.07666698 -0.09163932 -0.07838457 -0.068702586
-0.0032554 0.060119472 -0.016202848 -0.17436343 -0.083205864 -0.05246107 -0.08399211 0.059442464
-0.07662386 -0.06341955 -0.12120214 -0.115031436 0.028368326 0.066755034 0.013524543 -0.08692694
-0.12731488 -0.0010690422 -0.043306734 -0.047660325 -0.093174055 -0.037964925 0.023223832 -0.096570715
0.026488665 -0.077459276 -0.06910392 0.04782065 -0.018984085 0.040011507 -0.068858035 -0.02494511
-0.0028412628 -0.21113707 -0.18835759 -0.069842786 -0.005552861 -0.09655026 0.09114951 -0.10102463
0.06978496 -0.116684094 0.049279172 0.013555929 -0.18101537 -0.07668836 -0.016032157 0.054800924
0.04129389 -0.051248994 -0.039336033 -0.0073651043 -0.0907976 -0.18816854 -0.0125906 -0.022112496
0.01667392 -0.0076431856 -0.03021663 -0.057550635 -0.056073982 -0.037299953 -0.18013526 0.0035282986
-0.24695536 0.00746176 0.018851636 0.021588793 -0.054511003 -0.11289405 -0.16771461 -0.053641364
0.0034995866 -0.04394663 -0.09302105 0.07820118 -0.17221545 0.012759727 -0.020955365 -0.102155745

rnn.weight_ih_l1 f4 [384, 128]
00000000: 25e2 75bd 29df f63c 8f6a c6bc ae91 733d
00000010: d189 a13c 7e1d 9ebc 72c5 79bc dc24 b43d
00000020: 08b1 ea3d d100 943d 91eb 783d 0530 a2bd
00000030: 5b1d 71bd 86e7 7c3d 8a22 363c bd28 44bd
00000040: 4577 c23c f602 c93d a0cb a2bd 6a9b 1ebd
00000050: ebc9 c5bb 1742 5abc 9017 9bbd 137d 2cbd
00000060: e859 a93d 1a05 c23d f99c 6dbc 0cd3 7cbd
00000070: 8a83 8dbd f686 16bd 471b 573d 2436 003c
00000080: f671 c43d 08d4 90bd ee3a 1dbc fdaa d33b
00000090: ded0 5d3d 7028 89bd cea7 22bd a6c0 bdbb
000000a0: f46a bd3d cb03 7ebd bd51 27bd 8e16 8c3c
000000b0: 1db4 ef3d e045 ab3c 61c7 adbd 4b8c 3fbc
000000c0: 1a2c 81bb ca41 8b3d ecf4 47bd 8bcd bc3c
000000d0: 1dad b83d 2aeb 57bd 19e1 71bd af63 503b
000000e0: c128 b7bd 593b 603d 5c38 393d 2e47 273c
000000f0: 4de9 633c 10cd c33d 15d6 04bd 6926 b8bd
00000100: 9173 803a 026f cf3c b6b7 183d 6d74 a73b
00000110: 1908 2abb b587 f1bb 678f a2bd c26c 713d
00000120: bc8c f53c 6333 19bd decb 813a 6f7e 6ebd
00000130: 816b 8abd ce3f 743d 6494 c53c dd51 35bc
00000140: 1210 5cbd a19c 6b3d a1f5 eb3c 29ee d63d
00000150: bc0b 9fbd ab16 8abc 1f34 103b 1964 a93c
00000160: f4eb 193d 07c4 1ebd 8de3 873d a58d 25b9
00000170: bd7b 62bd 0416 573d 788d 7ebd 8bd0 5bbd
00000180: 3ed5 b7bb 27b8 7a3c a393 9a3c d7c6 0bbd
00000190: 55f6 99bd f759 edbc 9b50 293d 0795 193d
000001a0: 51b9 a33d c57f 5f3d 0013 a5bd dc6b 0cbd
000001b0: c218 d0bd 3628 8ebd effe 18bd 4f97 8cbd
000001c0: 40ea 48bc e71a 6ebc 2d22 24bd 4e4d adbd
000001d0: a712 9cbd 99ef 30bc d389 773c 77ba 42bd
000001e0: 43fd eabc 7958 83bc 2d41 953c e799 ef3b
000001f0: 560f bbbd e130 ed3c fc1a afbc 94a5 59bd
00000200: d854 91bd e23b dc3b dd00 b43d 1e06 0cbd
00000210: 42a2 74bc 6d5c 53bc 2067 2a3d 3630 c63d
00000220: 2379 76bd 141a ccbc 07fa 87bd ab36 a6bd
00000230: df22 cabd 9bfb 07bd 7dea b8bb f4b3 c03d
00000240: b1b2 7f3d 8422 fc3b 5b44 6e3c e6e6 e9bc
00000250: 7da7 a6bd 7e47 24bc e3e1 bfbc c7f8 4c3d
00000260: 19ca f5bb 81e1 bd3c e1d3 90bd b22c 273d
00000270: 2c42 0dbd 0d6e 873d 9377 a9bc ac8c 883d
00000280: 96ce 02bd 6250 1cbd 4782 97bd 3131 bfbc
00000290: fb4d 493d 7d66 4abd 037c 30bd a0d5 93bd
000002a0: f97b a43d 1f2d 90bd 3908 fdbc 2b23 583d
000002b0: c9a7 013c 09d3 503d bf2f 83bb 010f 25bd
000002c0: 8dde e1bb 4153 233d b5f1 38bb da07 debc
000002d0: 35e3 d63c 5343 2f3b 596d fd3c 1dff 05bd
000002e0: c79b ba3c 04ae a13d 7cb1 2bbd 0e02 1a3d
000002f0: d529 42bd ace5 8e3c 3499 113d 6707 983c
00000300: 13da 473c 5819 2b3c c9c3 96bb 4160 56bb
00000310: 2b36 bebd 7ce0 bbbb 271b 103d 9937 903d
00000320: 321c 923d 58ba 593d 7a68 1dbd a4e6 b63c
00000330: f937 04bd f21b 9e3d 53d9 f33d e574 933c
00000340: c037 c63c 0283 813d e4d1 c9bb 31a3 16bd
00000350: e8cd 14bd fb45 c43d 1592 42bd 895b 38bd
00000360: cc0d 1d3c 6e20 ca3c 10d7 a8bd 5ceb 0fbc
00000370: db8b 8a3c bfd6 b43c 68e4 aebd 2d5f ac3d
00000380: 965f 913d 62f3 573d 855e 3c3d 9739 9e3d
00000390: fef3 313d c125 ddbd c7ba 54bd a9b8 f93b
000003a0: e8b1 933d 0161 68bd 4646 f93b 226a 123d
000003b0: 0a42 9a3d 64c0 603c 1225 083e 7bd0 b7bd
000003c0: bb4b 91bc 2b81 94bc 3c8c 72bd 9b88 ffbc
000003d0: 4323 be3c e257 d4bd d782 66bd 2960 613d
000003e0: 20e4 99bd cc54 173d 2912 a2bc 71fb 703d
000003f0: 302b 8e3d be77 71bc 4bad 77bc 8508 c83c
-0.06003012 0.030135708 -0.024220733 0.059465103 0.019719036 -0.019301172 -0.015244829 0.08796093
0.11459547 0.07226718 0.06077153 -0.07919315 -0.058865886 0.061744235 0.011116633 -0.047890414
0.023738513 0.09815018 -0.07948995 -0.038722433 -0.0060360334 -0.013321421 -0.075728536 -0.042111468
0.082691014 0.09473629 -0.014502757 -0.061724707 -0.06909855 -0.036749803 0.052516248 0.007825408
0.09592049 -0.07071692 -0.009596569 0.0064595924 0.05415427 -0.06697166 -0.039710812 -0.0057907877
0.09248915 -0.062015336 -0.040849436 0.017100599 0.11704276 0.020907342 -0.08485294 -0.011691163
-0.003942025 0.06799658 -0.04881756 0.02304723 0.09017394 -0.052714504 -0.05905256 0.0031797697
-0.0894332 0.0547441 0.045219764 0.010209842 0.013910604 0.09560597 -0.032430727 -0.08991701
0.0009800066 0.025321487 0.037284575 0.0051103146 -0.0025944768 -0.007370914 -0.07937508 0.05894161
0.029974334 -0.03740252 0.0009902676 -0.058226045 -0.06758786 0.05963116 0.02411861 -0.011066881
-0.053726263 0.05752242 0.028803648 0.10494644 -0.0776591 -0.016856512 0.0022003723 0.020677613
0.037578538 -0.038761165 0.06635199 -0.00015788393 -0.055293787 0.05251123 -0.062146634 -0.05366568
-0.0056101372 0.015302694 0.018869227 -0.034125175 -0.07517687 -0.028973563 0.041336637 0.03749564
0.07994331 0.05456521 -0.080602646 -0.03428255 -0.10160972 -0.069412634 -0.0373525 -0.06864797
-0.012262881 -0.014532781 -0.040071655 -0.0846201 -0.07620745 -0.010799312 0.015108543 -0.047541108
-0.028685218 -0.016033398 0.018219555 0.0073120478 -0.091337845 0.028953971 -0.021375172 -0.053136423
-0.07096261 0.006721006 0.08789227 -0.03418552 -0.014931263 -0.012900454 0.041602254 0.09677164
-0.06017412 -0.024914779 -0.06639486 -0.08115896 -0.098699324 -0.033198934 -0.0056431876 0.09409323
0.062426273 0.0076945443 0.014542664 -0.028552484 -0.081374146 -0.010026811 -0.02342314 0.05004194
-0.0075008986 0.023178818 -0.07071663 0.04081411 -0.034486935 0.066127874 -0.0206869 0.06667456
-0.031935297 -0.038162597 -0.07397895 -0.023338886 0.049146634 -0.049414147 -0.043087017 -0.0721848
0.080314584 -0.07039856 -0.03088771 0.052767914 0.007913538 0.05098251 -0.0040034945 -0.040297512
-0.006892985 0.03987432 -0.002822024 -0.027103353 0.026231388 0.002674301 0.03093593 -0.032713998
0.022779359 0.07894519 -0.04191731 0.037599616 -0.047403175 0.0174435 0.035546497 0.018558217
0.012197989 0.010443054 -0.004600976 -0.003271118 -0.092876755 -0.0057335477 0.035182144 0.070418544
0.07134284 0.053156227 -0.038429715 0.022326775 -0.032279942 0.07720174 0.11906686 0.018000076
0.024196506 0.06323816 -0.006159054 -0.036776725 -0.03632918 0.0958366 -0.047502596 -0.04500917
0.009585809 0.024673667 -0.08244145 -0.008784141 0.016912391 0.022075055 -0.08539659 0.08416591
0.0709831 0.052722342 0.04598858 0.07725828 0.04344558 -0.107982166 -0.051935937 0.00762089
0.07211667 -0.056733135 0.007607254 0.035745747 0.07532127 0.0137177445 0.13295391 -0.08975311
-0.017736306 -0.018127998 -0.05921577 -0.031193068 0.023210173 -0.10368325 -0.056277122 0.055023346
-0.075142145 0.036946103 -0.01978405 0.058833543 0.06941831 -0.014738021 -0.015117 0.024418125

rnn.weight_hh_l1 f4 [384, 128]
00000000: d108 63bd b8e7 b4bc 55a6 a93d b536 983d
00000010: 9679 053d 406e 893c d671 3fbd 8231 413d
00000020: 8e87 86bd c2cd 213d c6d3 403d f0cc c33c
00000030: 08e7 533c c085 be3a a900 873d e192 22bd
00000040: 6a0a adbd 7dc1 8d3d 0062 ed3c 40a1 533c
00000050: ad76 813d f2b5 6d3d e037 b2bd 42dd 043d
00000060: 54a2 ebbc 90aa 6ebc 11de a63d f912 80bd
00000070: 9237 3f3d 4016 b63b dcb4 94bd 66f1 9cbd
00000080: b10d 9cbd 6a49 1d3d af92 a0bd ddf9 5fbd
00000090: 462b 6a3d 788b 373c e25c 103d f04f d03c
000000a0: 0a5c 4bbd 2283 433d 6535 8a3d 9d52 ab3d
000000b0: 2088 7fbc a3b8 823d 63eb 40bd 9ecc 2f3d
000000c0: 94a1 a23c 561a 42bd 0096 5a3c 3083 4b3c
000000d0: 58bb 8fbd 3dda 9b3d ca7f 76bd ba0b 4a3d
000000e0: 2849 7c3c 2b24 9e3d f6a0 593d e18a b4bd
000000f0: e0cf 97bd a1b8 863d 1a35 773d 1a00 5c3d
00000100: 8f69 52bd ab5f 813d 0049 d3ba 420d 39bd
00000110: 4ce9 f53c d048 003d 6103 8abd 261a f3bc
00000120: d358 883d 74fe fcbc 98d2 6fbc 6687 7e3d
00000130: 4e63 5c3d d281 a9bd 35bb 26bd 30df 80bd
00000140: 31ae 26bd b831 7bbc 0bcc 22bd 8632 24bd
00000150: dc6a dfbc d676 05bd 184c 023c 46cf 703d
00000160: c074 85bc 5134 b33d d15b 43bd c12f ae3d
00000170: 6f63 a33d 1ce9 103d ed85 a0bd 68ba 543c
00000180: 5e2a 6d3d 1064 94bd f8b2 9ebd 7f2a 87bd
00000190: fc06 e83c 127f 023d a4fb 87bd 76eb 463d
000001a0: 20a3 19bc ec6b 24bd 88fe 7c3c 7a0c 273d
000001b0: 2cd7 86bd 008a 393c 5029 99bd 502b bebc
000001c0: fb89 91bd bdd1 83bd 6552 ad3d f078 c2bc
000001d0: 1526 943d 7e37 a2bd aebf 7bbd 6385 b2bd
000001e0: 2859 a83c 9666 31bd 0077 bcbc 001a b4bd
000001f0: d24a 403d 6e9b b3bd 1700 a03d 088e ddbc
00000200: f045 2b3c 3414 5cbd 9120 8b3d fb06 a73d
00000210: d91a 8ebd e06f 833c 52ae 8dbd a944 8c3d
00000220: 3cb2 4abd 8b5f 94bd e639 96bd dcae 93bc
00000230: c89b 51bd 0828 afbc e80d ac3c 410a 28bd
00000240: 76b1 72bd 701f a63c 2c81 78bd 4081 edba
00000250: b017 93bc 8c13 e13c bf9d 973d 00ef dfb9
00000260: 89a7 b4bd 8346 61bd fccc c33c 5096 6abd
00000270: 026f 723d 20d9 83bc c052 41bc 7057 70bd
00000280: 8938 b0bd a2a5 753d 48f9 7e3c ee5d e9bc
00000290: acd9 0abd da46 51bd 804f 23bb 679b 5abd
000002a0: e28b 533d e7ad 863d 695c 903d a63e 2f3d
000002b0: 14f7 cdbc 01e4 863d 1adb 443d ce2c 1c3d
000002c0: 2755 aa3d 7440 a4bc f4d8 cc3c dca0 a5bc
000002d0: 7c9c ed3c 18da 573c 26be 333d 93c0 b13d
000002e0: 6ed7 7e3d 1836 a9bc 4c5b 91bc 98d9 c1bc
000002f0: f068 973c 3cf0 e13c 9cf3 78bd e63e e9bc
00000300: 80c2 91bd a8a7 3cbd d8d4 11bc faf1 80bd
00000310: 905d 383c 5ec7 7a3d 9328 a73d 452b 85bd
00000320: 28f8 183c 3ca0 b73c 9b92 52bd b165 48bd
00000330: 06a9 aebd 91f0 03bd 047a b2bc a0d9 a2bb
00000340: 3207 413d c875 743c 36b0 6ebd 9b1e 11bd
00000350: 809e 053a c7e6 5ebd a85f be3c 8228 1e3d
00000360: 28d9 1ebd 8945 38bd f045 a7bd caff fdbc
00000370: 0a22 753d 20a7 7cbd 40e5 373b efe0 813d
00000380: f0f8 91bd 3c8a 8abd a877 433c f425 a33c
00000390: 9d8e 8f3d 4947 a23d 98ca 19bc d9f4 9b3d
000003a0: 4316 a63d a8cd c23c 169b 363d d130 3fbd
000003b0: b8ae 6d3c b8e5 2bbd e73b a03d e8dd 7dbd
000003c0: 985c 1cbc 3174 a1bd 2597 ab3d ea81 7b3d
000003d0: 8a9e 203d 60f8 bf3b b221 1b3d 7d3e a0bd
000003e0: f8f2 63bc 7db2 ad3d 105f eebb b724 b33d
000003f0: 4aab 2b3d 30b6 2bbd 48c8 613c 9470 b1bc
-0.05542833 -0.022083148 0.082836784 0.074323095 0.032586657 0.016776204 -0.04673942 0.047166355
-0.06568824 0.039502867 0.047076963 0.023901433 0.0129335 0.001453571 0.06591923 -0.039690856
-0.08449252 0.069216706 0.028977394 0.012916863 0.06321464 0.058034845 -0.087020636 0.03243757
-0.028763928 -0.014567032 0.081478246 -0.06253619 0.046683855 0.0055568516 -0.07261059 -0.076632306
-0.07619799 0.03840009 -0.07840478 -0.054681648 0.057170175 0.011202686 0.03524483 0.025428742
-0.049648322 0.04773248 0.067484654 0.083653666 -0.01559642 0.06382873 -0.047099482 0.042919748
0.019852437 -0.047388397 0.013341427 0.012421414 -0.07018155 0.07609985 -0.060180463 0.04932759
0.015398301 0.07721742 0.05313202 -0.088155515 -0.07412696 0.06578184 0.060353376 0.053711034
-0.0513702 0.06317075 -0.0016119778 -0.04517866 0.030018471 0.03131944 -0.06738926 -0.029675554
0.06657567 -0.030883051 -0.014637612 0.062140845 0.05380564 -0.082767144 -0.04070588 -0.0629257
-0.040693466 -0.015331678 -0.03974537 -0.040087245 -0.027272634 -0.032584034 0.0079527125 0.05879142
-0.016291022 0.08750213 -0.047694985 0.08505202 0.0797795 0.03537856 -0.07838044 0.012983896
0.057901733 -0.07245648 -0.07748979 -0.06599902 0.028323643 0.031859465 -0.066397935 0.048564397
-0.009377271 -0.040141985 0.015441544 0.040783383 -0.065840095 0.011324406 -0.07478583 -0.023214012
-0.07106396 -0.06436489 0.08462981 -0.023739308 0.07233826 -0.079207405 -0.061462097 -0.08716848
0.020550326 -0.043310724 -0.023005962 -0.087940216 0.046946354 -0.0876988 0.07812517 -0.027045265
0.010453686 -0.053730205 0.06793321 0.08155628 -0.069387145 0.016044557 -0.069180146 0.068490334
-0.049486384 -0.07244786 -0.07335262 -0.018027715 -0.051173955 -0.021381393 0.021002725 -0.041025404
-0.05925127 0.020278662 -0.060670063 -0.0018120185 -0.017955631 0.027475141 0.074031346 -0.00042711943
-0.08821017 -0.054998886 0.023901455 -0.057272255 0.059187897 -0.016094744 -0.011799514 -0.058677137
-0.08604533 0.059972413 0.015562363 -0.028487172 -0.033898994 -0.05109296 -0.0024919212 -0.05337086
0.051647075 0.06576138 0.07048876 0.042784356 -0.02514223 0.06586457 0.048060514 0.038128667
0.08317023 -0.020050265 0.025005795 -0.020218305 0.029005282 0.013174556 0.04388251 0.08679309
0.06221717 -0.020655677 -0.017743729 -0.023663327 0.018482655 0.027580373 -0.0607792 -0.028472375
-0.07117176 -0.046058327 -0.008900844 -0.06296153 0.011252776 0.061225288 0.08162036 -0.06502394
0.009336509 0.022415273 -0.051409345 -0.048925105 -0.085283324 -0.032211844 -0.021786697 -0.0049697906
0.047126003 0.014920659 -0.058273517 -0.03542958 0.00050971657 -0.054419305 0.023238972 0.03861285
-0.038781315 -0.04498819 -0.081676364 -0.031005759 0.059846915 -0.06168282 0.0028060228 0.06341731
-0.07127559 -0.06764647 0.011930384 0.019915558 0.07009623 0.07923753 -0.009386681 0.0761506
0.08109715 0.023779705 0.044581495 -0.046677414 0.014506988 -0.041967124 0.078239255 -0.061979204
-0.00954356 -0.0788349 0.08378438 0.061403193 0.039213695 0.005858466 0.03787393 -0.07824419
-0.013912909 0.084813096 -0.007274516 0.08747237 0.0419114 -0.041921794 0.013780661 -0.021660127

rnn.bias_ih_l1 f4 [384]
00000000: d8f2 ddb9 6c76 f03a c747 5b3d 3fb4 bbbb
00000010: 8827 643d 7faf 863b 7dad 8a3d ff5d e63c
00000020: 9930 95bd 1beb bbbd 410c d83b fefd bc3c
00000030: 0d9d 8cbd 7d21 b5bd 4272 ebbb 9145 9f3d
00000040: 6bce febc 21d7 9d3d 93b9 053c c561 91bd
00000050: fa3a 53bd 5a1d 53bd 0635 91bd cdb8 9f3d
00000060: a6ff 84bc c5e3 883d 4315 61bc f851 efbc
00000070: 57f1 21bd 74ea 52bd c12e fabc 32e7 3d3c
00000080: 7346 5abd ce19 bebd 85a0 86b8 7db4 bc3c
00000090: c830 82bd e760 b13d add4 38bd f27e aebd
000000a0: 6524 44bc ce4e 97bb e438 943d 66db e03d
000000b0: 8a7d 15bd 6fc5 7f3d e52b 813d 9022 9e3c
000000c0: fcf3 c03c 4047 8c3d 3e41 7c3d 3828 7a3d
000000d0: 26de 2cbc 7487 f1bd 9e13 983d 00f7 26bd
000000e0: 35e8 58bd bfee be3b 587d ffbd 281b 303c
000000f0: 00cd 9abc 46bb 8e3d a13c a1bd 38a1 1e3d
00000100: 0e4c 92bd d67b e53d 850b b7bb 99d7 a8bd
00000110: 6f9b 9c3d 8701 e73c 2d90 5d3b 8f00 7abd
00000120: 85ff 063d 1293 27bc 15fc b53d ba8e 4d3c
00000130: 77c4 c03d 0d48 d43c 83aa 6d3d ae2a 49bd
00000140: 872d 91bb eb3e abbd 5dee bd3c ab21 413d
00000150: 945a 7f3d e68b b03c 586d ba3d fd08 0f3d
00000160: 7017 9fbd 44d0 1ebd d6bf 913d 1f32 af3d
00000170: 3d07 273d 3d43 eb3d 0dd8 2d3d 996d d63b
00000180: 304a 323c a220 09bd b0d4 153d a33f c63c
00000190: 51ff c33b f05b a6bc 4671 983d 872d b1bc
000001a0: 7e06 7d3d b621 183d 8723 ac3d 3e2f 46bc
000001b0: 5258 133d 76a5 893d c4d5 83bd 907f e3bc
000001c0: 0f09 debd ef25 2abc 022e 59bd 6d42 04be
000001d0: ded3 5a3d 2d4f 1c3d 8e62 9ebd cb21 87bd
000001e0: 8611 97bc af81 f03b 5212 d73c ff38 4ebd
000001f0: 9baa a13d eb6d 813c b220 cc3c 2c24 6e3c
00000200: 96f0 8a3d ffd6 27bd b489 2ebd 1031 b63d
00000210: c033 c53d f193 97bb a740 5a3d f1d4 bf3d
00000220: e44d 5c3d e1f5 08be 87db a23c 7fe5 39bd
00000230: 62a4 a4bd 2c6d 5fbe 33c2 003d 6c53 bb3c
00000240: 7e77 dbbd b1d6 8dbd bb76 ccbd d255 a6bd
00000250: a0ef f4bc c3c1 2bbd c70a a7bc e4e4 acbd
00000260: a1a7 d0bd a14e 2fbe e1a7 03bd 2e2c 423a
00000270: 3a35 19be ff63 71bd a5a3 853d 8d07 fe3b
00000280: 2405 eaba 3f56 a13c 0743 6abd 1f0e 3cbe
00000290: 1874 143d 4729 03be e560 14bd 1424 50be
000002a0: bfcb da3d 95f3 bebc 4979 01bc 4b79 8e3d
000002b0: 8501 1abc abb4 76bc 94e3 6dbe f26d 4abe
000002c0: 011a 2dbc 8569 76bd d328 7cbd ed96 a5bd
000002d0: 2c1b 8cbd 5caa 5ebc 97a5 b63d f94c 6cbd
000002e0: 3b98 d13c de26 a93c b73b 9c3c e39a 5f3d
000002f0: 931e 263c 94f7 32be 28d2 83bd d4a3 29be
00000300: a9da eab9 c264 d53b 235e 86bd 579a 413d
00000310: be70 40bb 2879 79bc 14e1 1e3d 3971 27bd
00000320: 89cf f2ba 9cb5 d0bd 32e1 b23d 0a0a 563c
00000330: 7f38 5dbe b495 62bc e0a4 a83c d5a2 7d3d
00000340: 6353 c8bd e634 0d3e 48e8 84bc edaf 783d
00000350: 5ac0 873a adda b8bd 105a 70bd 1fd7 fcbd
00000360: aa8d c2bc badf a43b 1253 d13d 5d27 63bd
00000370: 9c99 e33d 8154 6fbc 28ff 5dbc 289f 4d3d
00000380: 483b 9f3c ced6 36bd f184 ad3c e2e4 a23d
00000390: 6709 33be 3d48 883c b3d3 22bd 12ff 3dbc
000003a0: 9c0b e13b 7a1e 0dbc 2b0c 763d fb60 2abd
000003b0: 7499 04be 7c8f 8f3d 752e e83c 4c07 f63b
000003c0: f51b fd3d 515a 30bc a38e 5fbd 79fb b53d
000003d0: e4f9 98bd 5104 77bd 18bc 28be cdb0 8a3d
000003e0: f63f ce3d 048c 80be db4a 683d f301 9ebd
000003f0: 3afa b8bd b40e 9a3c 0672 3dbe 5a64 93bd
-0.00042333337 0.0018345839 0.05353525 -0.005728274 0.055701762 0.0041102762 0.067713715 0.028120993
-0.0728466 -0.09175702 0.0065932577 0.023070332 -0.068658926 -0.08844278 -0.0071852515 0.077769406
-0.031104287 0.07707048 0.00816192 -0.07098726 -0.051569916 -0.051541664 -0.070901915 0.0779892
-0.016235184 0.066840686 -0.013737979 -0.02921389 -0.0395368 -0.051493123 -0.030539872 0.011590766
-0.05328984 -0.092822656 -6.419517e-05 0.023035282 -0.063569605 0.08661061 -0.0451247 -0.08520307
-0.011971568 -0.0046175485 0.072374135 0.10979347 -0.036496677 0.062444147 0.063072 0.01930359
0.02355384 0.06849527 0.061585657 0.06107351 -0.010551011 -0.11793414 0.07425617 -0.0407629
-0.052955825 0.0058268006 -0.12475079 0.010748662 -0.01889658 0.06969313 -0.07872892 0.03872797
-0.071434125 0.112052605 -0.00558609 -0.08244247 0.07646834 0.02819897 0.003380786 -0.06103569
0.032958526 -0.010227935 0.088859715 0.012546236 0.09412473 0.025913263 0.05802394 -0.04911297
-0.004430476 -0.0836161 0.02318495 0.04715125 0.06234224 0.021551084 0.09102887 0.03492068
-0.07768142 -0.038772836 0.07116668 0.08554482 0.040778387 0.11487434 0.04244237 0.006543827
0.0108819455 -0.033478387 0.036579788 0.024200266 0.005981364 -0.020307511 0.0744348 -0.021628154
0.06177377 0.037141524 0.08405214 -0.012096224 0.0359729 0.06721012 -0.06437257 -0.027770787
-0.108415715 -0.010385021 -0.053022392 -0.12915964 0.05342471 0.038161445 -0.077336416 -0.06598242
-0.018440973 0.0073396782 0.026253853 -0.050347324 0.078938685 0.015799483 0.024917934 0.014534991
0.067841694 -0.04097652 -0.042611793 0.08896077 0.09629011 -0.0046257903 0.053284314 0.09366787
0.05378522 -0.13375045 0.01988007 -0.04538488 -0.08039166 -0.2181899 0.031435203 0.022866927
-0.10716151 -0.06925715 -0.099835835 -0.08121838 -0.029899418 -0.041932832 -0.020390881 -0.08442095
-0.10188223 -0.17119838 -0.032142524 0.0007407096 -0.1496171 -0.058933254 0.06525353 0.007752365
-0.0017854315 0.019694446 -0.05719283 -0.18364762 0.036243528 -0.12808715 -0.03622522 -0.20326263
0.10683393 -0.023309508 -0.007902452 0.069567285 -0.009399776 -0.015057723 -0.23231345 -0.19768503
-0.010565282 -0.060159225 -0.06156237 -0.080854274 -0.0684112 -0.0135904215 0.089183025 -0.057690594
0.025585284 0.020648416 0.019071443 0.05459107 0.010139125 -0.17477256 -0.064365685 -0.16566402
-0.00044794873 0.0065122554 -0.06560924 0.04726633 -0.0029364075 -0.01522664 0.03878887 -0.040879462
-0.0018524985 -0.10190889 0.08734359 0.013063917 -0.21603583 -0.013829637 0.020586431 0.061922867
-0.0978153 0.1378971 -0.016224042 0.06071465 0.0010357008 -0.09026084 -0.05867964 -0.123457186
-0.023749191 0.005031553 0.102209225 -0.05545746 0.11113283 -0.01460755 -0.0135496035 0.05020061
0.019437447 -0.044638447 0.021181555 0.07953812 -0.17484055 0.016636008 -0.039752673 -0.011596458
0.006867839 -0.008613223 0.060070198 -0.041596394 -0.12949163 0.07009789 0.028342465 0.007508194
0.12358848 -0.010763721 -0.05457939 0.08885855 -0.07469538 -0.06030685 -0.16478002 0.06772003
0.10070793 -0.25106823 0.056712013 -0.077152155 -0.09032102 0.01880584 -0.18500528 -0.07196875
