gan_modals/checkpoints/generator.pth (torch, 627678 bytes, 12 tensors)

rnn.weight_ih_l0 f4 [384, 16]
00000000: 588c 433c 6b1a 363d 50ce 84bc c2cd 37bd
00000010: 05c1 5cbd 61ae 3b3d b32a bcbc 66a3 f63c
00000020: bf02 1f3d 21ed 83bd eaa0 58bb a824 afbc
00000030: cf3f cfbd a252 4f3d 8f1c 583d 72c0 0d3d
00000040: 5e7f 37bd 90d1 48bd aa01 e63c 2b7c da3c
00000050: 7ec4 243d 79b2 f13c e90a 9d3d ba73 4e3a
00000060: d2e9 0f3a 39f2 973b 68ac b73d 7969 553d
00000070: aaf6 143d 2075 70bd 699f 45bd 6705 263c
00000080: 9289 edbc f653 7a3d a1da 493d 82b5 1bbd
00000090: c642 6d3d 21e1 f4bd 1a6f 483d d90d fbbc
000000a0: 7210 a9bd 726e 2abd 2fb2 4d3c 2fec d4bd
000000b0: b537 1e3d 2a44 cdbd 0801 82bc 4107 05bd
000000c0: 3310 053d ad05 95bd b0e1 94bd 7129 40bd
000000d0: ca5d c4bd 4982 733d e36e 52bd 1638 19bb
000000e0: 9d3a 9f3b 9ae8 4f3d 45de ccbc 0353 773c
000000f0: 204c 9abd 14e6 733d 52f9 c8bd f5e8 85bc
00000100: b8fe 0dbd 372e 5b3d 7065 7abd 4162 c5bd
00000110: 9523 d1bd 3b68 96bc f775 84bd ed9a 93bd
00000120: d50b 023c 656d 68bd 25f0 913c 8d2b 943d
00000130: 9954 a73c 2639 58bd eab0 bcbd 7b12 573d
00000140: 5214 a93a 2536 98bc 0282 71bd 4262 2bbd
00000150: a35d 013c 86bd cebd ffd4 78bd 63ee db3c
00000160: 690b 5d3d 2e3a 1ebd cc51 a63d e427 5abd
00000170: 39d3 c03a 46d2 6f3d 52f4 93bd 993b 5cbd
00000180: d80f d6bc dbdc b53c 2d28 8e3d a156 613d
00000190: 7420 1d3d 5eb1 95bd 006e 583d 75a4 b0bd
000001a0: 60d2 823d 74b1 0abc e7f0 f0bc d8c9 963d
000001b0: 3ed5 9abd 66fa ae3d 0c6c bb3b 8ed9 893d
000001c0: 9ff9 983d df67 23bd 32a4 a43d 98c2 6fbc
000001d0: e9b1 a1bd bdc6 a7bd 252a f5bb b952 f03d
000001e0: 0220 393c ba62 3ebd f8f7 cc3d 3502 05bd
000001f0: 3da2 febc 40cc f03c 4013 623c 4b88 7139
00000200: 9083 42bc 812c 223c 231b 583d 343e ddbc
00000210: be35 1dbc 08c5 dcbc 97e9 633d bc46 933d
00000220: 575a 1dbd d0c2 ae3c a769 84bc a866 a4bd
00000230: 799b f2bc 971c bd3b 27e8 eebd f3e5 883d
00000240: b31c 10bd 296e 913d 3075 ddbc 7264 1c3c
00000250: 130c c8bd df6a a5bd 1cc1 9cbd 203b ddbd
00000260: d748 b83c ce2c a93c 5db0 55bd a8aa 55bc
00000270: 4c92 30bc 062d 8bbd 31aa 6c3c a9e7 8cbc
00000280: a2b7 d03d e462 543d 3487 3fbd 435e ff3c
00000290: 53eb 03bc 3376 b6bd ba78 413d 676e 99bd
000002a0: 86a5 773d fa49 ac3d 2640 41bd 26e5 ea3c
000002b0: da0a 74bd 5480 39bd 8f0b 20bb c959 253d
000002c0: 923e 603d 8319 da3b 760f ce3d d904 a53d
000002d0: a3ec 3a3d f2ed 7a3c 91c2 733d 69f3 6c3d
000002e0: 27c2 3a3d e2d9 833c 92c0 46bd b4ba 5c3d
000002f0: 374b 893d 8ce3 6a3d 183e 4b3d 35b8 c039
00000300: 62c7 123d 6440 393c 9b52 0ebc 97b4 ac3d
00000310: 9542 a0bd 9924 02bd f617 b63d 9b36 b43d
00000320: 6feb a5bd e918 363c 9bc1 c23d b317 993d
00000330: 2bf9 c13b e250 e03d 2f34 453d 38ae c83a
00000340: 9fd3 573d b43f 133d bf20 9e3a 6e15 9cb9
00000350: de43 29bd 8a97 b23d ad31 973d b759 2ebc
00000360: 2670 0d3d e1e4 7c3d 720b c73b 1c5c 5a3d
00000370: 0ea4 653c 7dfb 4d3d 0adc 99bd e5ad 64bd
00000380: 3979 7fbd cfbf ab3d 650a 9e3c 6e46 7abd
00000390: 98aa 993d bbb9 0c3c 090c d239 7b9a c03d
000003a0: b460 02bd 4048 703d fb92 0f3d aa06 8ebc
000003b0: ed50 0fbd 244a cb3d 74d0 74bd 7aca 903c
000003c0: d60d 073d 44a3 263d bb69 c2bb b4b5 923d
000003d0: 7f12 74ba 7d4f b53b 0198 303d 040a f03c
000003e0: 3acf 5abd 564d 8fbd 3ec2 483d d627 05bd
000003f0: 7f8d 47bc 7695 ad3b faca 4a3d d21b d3bd
0.011935316 0.044458788 -0.016211659 -0.04487396 -0.053895015 0.045820598 -0.02296958 0.030107211
0.03882098 -0.06441713 -0.0033054897 -0.021379784 -0.101195924 0.050615914 0.05276161 0.03460736
-0.0447992 -0.04902798 0.028076965 0.026670536 0.040226452 0.029504048 0.076680966 0.0007875521
0.0005489859 0.0046370295 0.08968431 0.05210254 0.03636805 -0.05870545 -0.04824773 0.010133124
-0.028996263 0.061115228 0.049280766 -0.038014896 0.05792501 -0.119570024 0.04893408 -0.030646252
-0.0825509 -0.041609235 0.012554689 -0.10396611 0.038627345 -0.10022767 -0.015869632 -0.03247762
0.032486152 -0.07276473 -0.07269609 -0.04691452 -0.09588201 0.05945042 -0.05137528 -0.0023379377
0.004859282 0.050758936 -0.02500833 0.015095475 -0.07534051 0.05954559 -0.09813179 -0.016346434
-0.034666747 0.05351087 -0.061131895 -0.09637881 -0.10211865 -0.018360248 -0.064678125 -0.07207284
0.007937391 -0.05674495 0.017814705 0.07234869 0.020426081 -0.052788876 -0.09213431 0.05250786
0.0012899733 -0.018580506 -0.058961876 -0.041841753 0.00789586 -0.100947425 -0.060750004 0.02684707
0.05396596 -0.038629703 0.0812107 -0.0532607 0.0014711387 0.05855014 -0.07224335 -0.053767774
-0.026130602 0.022200039 0.06941257 0.055014256 0.038361028 -0.07309221 0.05283928 -0.08625118
0.06387782 -0.00846516 -0.029411746 0.073627174 -0.07560204 0.085438535 0.0057196673 0.067309484
0.074694864 -0.03989398 0.0803913 -0.014633797 -0.07895262 -0.08192203 -0.0074818307 0.11734528
0.011299135 -0.04648087 0.10008234 -0.032472808 -0.03108322 0.029394269 0.013798535 0.00023034324
-0.011872187 0.009898306 0.052760255 -0.0270072 -0.009595333 -0.02694942 0.05564269 0.07191226
-0.038416233 0.021333128 -0.01616366 -0.080273926 -0.02961515 0.0057712304 -0.11665373 0.06684484
-0.03518362 0.071010895 -0.027033418 0.009545432 -0.09767928 -0.08077025 -0.0765402 -0.10802293
0.02249567 0.020651247 -0.052170146 -0.013041176 -0.010777067 -0.06795697 0.014444874 -0.017200308
0.10191275 0.051852122 -0.0467598 0.031172877 -0.008051711 -0.089092635 0.047234274 -0.07491761
0.06046059 0.084125474 -0.047180317 0.02867372 -0.05958066 -0.0452884 -0.0024420952 0.04036883
0.05474717 0.0066558733 0.10061543 0.08057565 0.04563583 0.01531552 0.059511725 0.05784932
0.045595314 0.016095106 -0.048523493 0.05388899 0.06703799 0.05734591 0.049619764 0.0003675834
0.035834678 0.011306856 -0.008686687 0.08432882 -0.078251995 -0.031773183 0.08891289 0.08799478
-0.08101546 0.0111143375 0.095095836 0.074752234 0.0059195957 0.10952927 0.04814547 0.001531071
0.052692052 0.035949424 0.0012064202 -0.00029770605 -0.04132449 0.0872031 0.07382522 -0.010641507
0.03453078 0.061741713 0.0060743624 0.0533105 0.0140161645 0.050288666 -0.07512672 -0.0558299
-0.062371466 0.08386194 0.019292066 -0.061102323 0.07503241 0.0085892035 0.00040063288 0.09404465
-0.031830505 0.058662653 0.03505228 -0.017337162 -0.034989286 0.099262506 -0.05976911 0.017674673
0.03297218 0.040683046 -0.005933014 0.07163563 -0.00093106175 0.0055331574 0.043113712 0.02930165
-0.053420283 -0.069971725 0.04901337 -0.032508694 -0.012179731 0.005297358 0.04950998 -0.10308041

rnn.weight_hh_l0 f4 [384, 128]
00000000: 4cef 84bd e0d7 39bc 74aa 833c f8c1 023d
00000010: 50ad e0bb 8b33 76bd 8e00 543d 4041 14bc
00000020: 10ac 58bd 0023 45bc dcaf 9e3c 9cf6 c03c
00000030: fd48 823d 0875 86bd b1e8 a0bd 4219 643d
00000040: 7ac4 483d ea90 343d 366c 2a3d a23d 403d
00000050: 97a0 aa3d d7b2 ac3d 74df 97bc 1885 df3c
00000060: a05e 7bbd 29df afbd 853c 97bd 7c70 80bc
00000070: 6003 28bb d0c5 cbbb 104c 933b a8a6 8fbd
00000080: b02f d1bb 3308 853d 51e6 37bd 0048 f83a
00000090: b83c 7bbc e6b8 163d 27d9 8bbd 5654 6fbd
000000a0: 2d24 8a3d 602d 8dbd 70b7 fcbb 86db 373d
000000b0: 53f9 a53d 6df8 aa3d 1c44 8dbd 8008 543b
000000c0: 3ee8 efbc e24d 603d f695 5c3d 8077 58bc
000000d0: 23af a83d f856 cc3c 58cc 7ebc 6150 a83d
000000e0: 46bd 393d 707f ccbb 00a1 843b 9ebe 3f3d
000000f0: 8d8b ab3d 503f 0c3d 14f0 b2bc 826a 1a3d
00000100: 3ce6 c6bc e27c f1bc 9b15 963d 0ef1 7fbd
00000110: c89e c6bc 103a e03b 0052 d73c 48ba a03c
00000120: a20d 733d 004b c43b e45a f23c 5820 1dbc
00000130: 68cc 82bd 1694 9ebd c683 7e3d 2b55 a0bd
00000140: 004d febc a3b2 b0bd 60d8 b8bb c0d1 cb3a
00000150: 608b 66bd babd 093d c0a5 053c 70fb 45bc
00000160: 1818 efbc a4f0 ce3c b2fb 4e3d 279b a93d
00000170: 7e99 283d 00d5 67ba fe0b 683d 98dc 09bc
00000180: ba47 87bd 54d2 66bd 50da e5bb beb4 3d3d
00000190: d581 61bd 23fb 67bd 402f 8ebd 3b19 94bd
000001a0: 7a6d 95bd 6220 1cbd 0e6e 033d ca34 74bd
000001b0: 4272 5b3d afc7 9bbd bb7f 31bd 3606 2cbd
000001c0: f004 42bd 9e53 553d 8e18 263d c08e 45bd
000001d0: 30b3 81bb 6059 74bb 1269 753d 80b7 e1bb
000001e0: 0866 36bc 158b 5cbd 6cb8 b8bc e8ed c0bc
000001f0: ad91 a0bd 06fc 5b3d 9e04 b5bd 4d30 a83d
00000200: ec80 d83c e3e1 b3bd 5337 9b3d 5fbc 853d
00000210: 5e02 333d a07e f83c 1cf7 44bd 78c1 8bbd
00000220: 8a35 b2bd 0319 a13d 5ab1 573d 955c 97bd
00000230: 440a be3c e63b 303d cbd9 8bbd 1604 7f3d
00000240: 78f6 84bc 608c d9bb c0b6 013c f740 9ebd
00000250: 5ca6 f63c de19 223d 8d7d 9b3d 2c16 f3bc
00000260: d961 af3d 1492 6dbd 3052 ce3c a050 c43c
00000270: 68a1 2dbc b672 9abd da2d 7f3d b840 383c
00000280: 70d2 0d3c e628 6ebd 6e7e a2bd b6cb 66bd
00000290: 1a4c 643d 8858 8ebd 334b a43d ee95 373d
000002a0: 4051 8cbd d2a0 e0bc a639 3f3d 8e63 763d
000002b0: 6c05 82bc 28bf 9fbd 4991 943d 2c2a 2fbd
000002c0: 92ba 1c3d 30b6 49bc 5c5e 103d 1580 a13d
000002d0: e152 863d 6d42 a43d f6bc 44bd 93bc acbd
000002e0: 4006 d7bb 86b9 3d3d 8299 5d3d 81dd 8c3d
000002f0: 2883 03bc bcf4 83bd a81c c7bc d985 64bd
00000300: 7ed3 343d d8b3 cb3c 2af1 7fbd 40c0 d2bc
00000310: 1a04 97bd 0086 08b9 9c13 cdbc 5e55 763d
00000320: a267 783d 998d 913d 4ee1 6e3d 1c94 b4bd
00000330: 6e6d 433d 7b29 adbd 3efa 343d 73b8 a43d
00000340: f0e3 e33b a07a 903b d05e a2bb 0397 4abd
00000350: acdc 0d3d 7bdf ab3d dc2d 0f3d c905 4bbd
00000360: 2ee6 ecbc 2083 9fbb a125 973d 458c 8c3d
00000370: e773 19bd f8fd 9ebc 14ed 8f3c d92a a4bd
00000380: 5667 b4bd 97bf af3d 00f5 c53b 60cc 07bb
00000390: 60ca 8dbd cc93 ffbc e80e 22bd 8fe6 a63d
000003a0: c2a6 6bbd fd53 1cbd e00e 6ebb 40cf 8a3a
000003b0: af44 b13d 001a 39bc 24d9 58bd 18e1 6fbd
000003c0: 9112 813d 4d37 a13d 1071 193c e08d f93b
000003d0: e0fc b1bb 8262 3c3d 68b1 9bbd 225d 9bbd
000003e0: 6485 a6bd b314 953d 8c2a 8dbc 5c61 0dbd
000003f0: 8c0e e73c c041 8e3a 181b 94bd 5cc2 bb3c
-0.06490955 -0.0113429725 0.01607249 0.031923264 -0.006856598 -0.06010775 0.05175834 -0.00904876
-0.052898467 -0.01203227 0.019370966 0.023555093 0.06361578 -0.06565291 -0.07856882 0.05568815
0.0490155 0.044083513 0.041607104 0.046933778 0.08331411 0.084325485 -0.018539168 0.027285144
-0.06136954 -0.08587486 -0.0738459 -0.015678637 -0.0025636777 -0.0062186494 0.0044951513 -0.07014209
-0.0063838586 0.064957045 -0.04489738 0.0018942356 -0.015334301 0.036797427 -0.06828528 -0.05843004
0.06745181 -0.0689342 -0.007712297 0.04488709 0.081041954 0.08348165 -0.068977565 0.00323537
-0.029285546 0.054761775 0.05385395 -0.013212085 0.0823653 0.024943814 -0.015551649 0.08218456
0.04534652 -0.0062407777 0.004047513 0.046812646 0.083762266 0.034240067 -0.021842994 0.03769923
-0.024279706 -0.029478494 0.0732834 -0.062485747 -0.024245635 0.006842859 0.026284218 0.019620076
0.059339173 0.005990386 0.029584356 -0.009590231 -0.06386644 -0.07743089 0.062137388 -0.078287445
-0.031042576 -0.08627822 -0.0056410283 0.0015550181 -0.056285262 0.033628203 0.008157194 -0.012083873
-0.029186293 0.02526123 0.050533004 0.08281546 0.041162007 -0.000884369 0.05665206 -0.00841441
-0.06605478 -0.05635293 -0.0070145503 0.046314947 -0.055055458 -0.056635987 -0.06942606 -0.07231375
-0.072962716 -0.03811682 0.03208738 -0.059620656 0.05357576 -0.07606446 -0.043334704 -0.04199811
-0.04736799 0.052081697 0.04055076 -0.04823184 -0.0039581284 -0.0037284717 0.059914656 -0.00688833
-0.011132725 -0.053843576 -0.022548877 -0.023550943 -0.078402855 0.053707145 -0.08838771 0.08212338
0.026428662 -0.08783319 0.07578912 0.065300696 0.04370343 0.030333817 -0.048087224 -0.068240106
-0.08701618 0.07866099 0.05265937 -0.073907055 0.023198254 0.043025874 -0.0682865 0.062259756
-0.016230807 -0.0066390485 0.007917106 -0.07727235 0.030108623 0.03957545 0.07592306 -0.029673658
0.08563585 -0.05800064 0.025185674 0.023964226 -0.010597564 -0.075414106 0.062299587 0.011245899
0.008656129 -0.058144473 -0.07934271 -0.056346618 0.05573664 -0.0695048 0.080221556 0.04482072
-0.06851435 -0.027420435 0.046685837 0.060153536 -0.015871726 -0.07800132 0.072542734 -0.042764828
0.038263865 -0.012311503 0.035246238 0.07885758 0.06558777 0.08020482 -0.04803177 -0.08434405
-0.0065620244 0.046319507 0.054101475 0.06878186 -0.008026876 -0.06443164 -0.024305657 -0.05579171
0.044147007 0.02486603 -0.06248585 -0.025726438 -0.07373829 -0.0001301989 -0.025033765 0.060140006
0.060645707 0.07107086 0.058320336 -0.08817312 0.047711782 -0.084551774 0.044183962 0.080429934
0.0069546625 0.0044091493 -0.00495515 -0.049460422 0.034634277 0.08392235 0.034955844 -0.049566064
-0.028918352 -0.0048679262 0.07380224 0.06862692 -0.03746405 -0.019408211 0.017569102 -0.08015985
-0.08808772 0.08581465 0.006041169 -0.0020721182 -0.069233656 -0.031198405 -0.039564997 0.08149444
-0.05753208 -0.038166035 -0.0036324784 0.001059033 0.086556785 -0.011297703 -0.052941456 -0.058564276
0.063023694 0.07871876 0.009365335 0.00761579 -0.0054317564 0.045992382 -0.07602197 -0.07586123
-0.08130911 0.07279339 -0.017232202 -0.034516677 0.028205179 0.0010853335 -0.0723173 0.022919826

rnn.bias_ih_l0 f4 [384]
00000000: e774 cabb e75d 7bbc 123e a73d 06e1 9b3d
00000010: 1640 313d 381d 993d 7817 82bd 06c2 2e3d
00000020: f53c 8b3d 0785 c9bb 9347 6fbd a28b 9fbb
00000030: c169 a43d e08a 963d f63f 8cbd 5257 dc3d
00000040: 291c 513d 4f4d 693d f1cd 843d 425d bdbc
00000050: f786 e7bc d781 473d 1985 78bd a9be c03d
00000060: 7ae9 dabc 9510 323d 90e6 1bbd 3685 183d
00000070: 10cf c0bd 37e5 fa3c 412b 2c3d 0766 3ebd
00000080: 610d 723d 71c7 643d db33 bb3d 3fc5 8fbd
00000090: 5d46 7d3d 29ac 4d3d 751b 9b3c dc71 a13c
000000a0: 3b54 bdbc 1276 47bd 21f7 a1bd 5d24 85bd
000000b0: ebc1 11bd 0c18 a63d c326 803d ab29 8f3d
000000c0: 523a 9f3c a868 b13b 3b69 85bb 2b27 803d
000000d0: fda3 36bd 975e 353c dcef 41bd 0a0c db3c
000000e0: c086 9b3d dd61 3a3c 3a32 863d 31d0 f1bc
000000f0: b346 68bb 4d49 72bb 646b 91bc 7edd 933d
00000100: ebdf 6dbc 36b1 d23c 852d 7e3c 3c9a 463d
00000110: 6d33 62bc 64ad 12bd a589 37bd 345e 0c3c
00000120: 45a5 42bd a3cb 2dbd 014b 843d b1ad 3dbd
00000130: 1eb6 b6bb 8181 5fbc 55ce 333d 3d69 82bd
00000140: 49b9 8f3d 5fe4 d0bc da0e 8ebd 6314 c0bc
00000150: 3d61 1a3d 4def 823d d695 f33b 9f68 5ebd
00000160: 44e2 7dbd a1d3 113d c9ae 60bc f4c9 f43c
00000170: 7729 d53c fb5f 9e3d 6322 a6bc 3f31 cfbd
00000180: 4315 303d b4a8 58bd 9ad6 e6bc 96f4 043d
00000190: d2ae afbc 636e 3e3d 7f9d df3a 59a1 0cbd
000001a0: 046e 82bd 03ac 2a3d e6a9 983d 8a27 a1bd
000001b0: 2714 17bd 0826 3ebd 66a5 43bd 8373 4abb
000001c0: 3e73 1b3d 60c2 d5bc 43f2 b83d 70a2 583c
000001d0: 9059 ac3d 44f5 133d e342 003d b079 d73d
000001e0: fe2e 163d 028d 163b 4e80 17bd cf45 0cbd
000001f0: 3422 f63c 4885 c8bc f72b 1c3d 2985 923d
00000200: 6282 953d 9b0a 26bd bb0e 17bd b063 4abb
00000210: 244f 75bd bf95 afbc 3d7d 1e3d 578a 88bc
00000220: ce61 0d3d d330 883d 9487 09bd 1e24 4cbd
00000230: ece1 aebd ad97 4e3c 7045 c23c 7d9c 203d
00000240: 610e af3d 95eb febc 0741 973b bba7 a0bd
00000250: 7544 69bc 42e3 97bd 9a0d 6ebd 4310 9bbd
00000260: d0b8 9d3d a762 733d 6062 7cbd 8418 713d
00000270: e8d5 1dbd 277b 9fbd 361b 7a3d 1787 d0bc
00000280: 029c 8a3d b8f4 76bd 3354 753d 9503 043c
00000290: 2a31 5bbb 6d79 bd3d 183b a0bd ae34 45bc
000002a0: d174 20bd 5d81 253d 2fa6 d83c f57f 143d
000002b0: ebf4 16bd 820a 41bd ba9c 81bb 62de c43c
000002c0: 26ca 2d3c b100 943d c432 10bc b597 153d
000002d0: d2d1 443d 3fcf 55bc 351b f4bc fa18 48bd
000002e0: ae43 1cbc 9fff 403d 220a 1c3d 0f87 55bd
000002f0: 9c3e 463d 0fe6 953d 4ad9 0cbd 1b64 9cbd
00000300: d869 473d b087 9cbc 76d8 003d 3571 6d3d
00000310: 271a c0bd df66 8d3d 1896 0dbb c0ec 7e3c
00000320: aa6b b8bd 1359 05bd aae2 3bbd ed89 783d
00000330: bf24 653d 4dff 9c3d bf17 533d b9cc 8abd
00000340: b536 c23c 9e60 903d 4cc7 bcbd 4ba3 863d
00000350: 020a e5bc c2aa a0bc e340 833d db7d 563d
00000360: a4af a83c 48c4 913d 13d3 5d3c 3d2a 23bc
00000370: 816a 90bd f978 11bc 557d ce3b 0b4a 6b3d
00000380: 5f0a 03bd 1723 a0bc 447a 0d3d 47b2 ee3c
00000390: de30 b5bc 4016 0e3c be18 86bd 1054 963d
000003a0: bfe8 a63d 40ec 49bd fc91 88bd 2d26 833d
000003b0: afe7 febb 60eb 1dbd 91a2 3a3d ad04 a23b
000003c0: 8017 8d3d 0309 3bbd 6e41 f93b 64cd b1bd
000003d0: 9699 f9bc fc2a 9c3d 7c68 0ebc 4ad9 943c
000003e0: 03f6 aa3d 16a4 b9bd 3c68 a4bd b081 1dbd
000003f0: eeec 943d 7e92 993d 85b0 b73d 43c4 be3d
-0.0061784866 -0.015342212 0.08166136 0.07611279 0.043274008 0.07476276 -0.063521326 0.042665504
0.06798736 -0.0061498913 -0.058417868 -0.0048689405 0.080279835 0.07350707 -0.06848137 0.107588425
0.051052246 0.056958493 0.06484593 -0.023115758 -0.028262598 0.04870781 -0.060673807 0.094113655
-0.026722658 0.043472845 -0.03806168 0.037236415 -0.09414494 0.030626876 0.042033438 -0.04648402
0.05909479 0.055854265 0.0914075 -0.070200436 0.06183468 0.050213013 0.018933991 0.019707613
-0.023111453 -0.048696585 -0.07908464 -0.06501076 -0.035585325 0.08110055 0.06257393 0.069903694
0.019436989 0.0054140873 -0.0040713823 0.06257471 -0.044589985 0.011069915 -0.04734789 0.02673914
0.07594061 0.0113758715 0.06552549 -0.029518219 -0.003544253 -0.003696996 -0.017751403 0.07219981
-0.014518718 0.025719266 0.015513782 0.048486933 -0.013806206 -0.03580989 -0.044809002 0.008567382
-0.047520895 -0.04243053 0.06459618 -0.046308223 -0.0055759093 -0.013641716 0.043897945 -0.06367729
0.07017762 -0.02549952 -0.069364265 -0.023447221 0.03769039 0.06393299 0.0074336333 -0.054298993
-0.06198336 0.035602216 -0.013713547 0.029881455 0.026020749 0.077331506 -0.020280069 -0.10116815
0.042989027 -0.052895263 -0.028178502 0.032459818 -0.021445666 0.04649199 0.0017060487 -0.03433356
-0.0636864 0.04166795 0.074542806 -0.078688696 -0.036884453 -0.04642299 -0.047765158 -0.0030891604
0.0379517 -0.026093662 0.09030583 0.013222322 0.0841552 0.036122575 0.03131379 0.10521257
0.03666591 0.002297223 -0.036987595 -0.034246262 0.030045606 -0.024477616 0.038127866 0.071543045
0.07300259 -0.040537458 -0.036879282 -0.0030882172 -0.059889928 -0.02143371 0.038693655 -0.016667528
0.034517102 0.066499375 -0.033576563 -0.04983913 -0.08539185 0.0126094045 0.023714751 0.03921174
0.085476644 -0.031118194 0.004615906 -0.07844492 -0.014237513 -0.07416393 -0.05811844 -0.07571461
0.07701266 0.059420254 -0.061617255 0.05886127 -0.038534075 -0.07787161 0.061061107 -0.02545504
0.067680374 -0.060291976 0.05989475 0.008057495 -0.0033446052 0.09251676 -0.07823771 -0.012036486
-0.039173905 0.040406574 0.02644643 0.03625484 -0.036854666 -0.04712916 -0.003955451 0.024031822
0.010607278 0.072266944 -0.008801166 0.036521632 0.048051663 -0.0130499 -0.02979813 -0.048851945
-0.0095376205 0.04711878 0.0380956 -0.052130755 0.048399553 0.07319271 -0.03438691 -0.07636281
0.048684925 -0.01910767 0.031456433 0.05796929 -0.09379988 0.06904387 -0.0021604355 0.015559375
-0.0900491 -0.03255565 -0.04587046 0.06067841 0.055943247 0.07665882 0.051536318 -0.06777329
0.023707727 0.07049678 -0.092177 0.065741144 -0.027958874 -0.019612674 0.064088605 0.05236612
0.020591564 0.07117516 0.013539094 -0.009958801 -0.07051564 -0.00887894 0.006301562 0.05744366
-0.031992313 -0.019547982 0.03454043 0.029137744 -0.022118028 0.008672297 -0.06547688 0.073402524
0.081498615 -0.04929757 -0.06668469 0.06403766 -0.0077790837 -0.03855455 0.04556519 0.004944405
0.06889248 -0.04566289 0.007606677 -0.08681753 -0.030468743 0.07625386 -0.008691903 0.018170018
0.08347704 -0.090645 -0.08027694 -0.038453758 0.07271753 0.07498644 0.08969215 0.09314778

rnn.bias_hh_l0 f4 [384]
00000000: 0a6b 3ebd e356 a63d c3a2 883d aeeb c6bb
00000010: 1395 41bd 42ce 68bd ddeb dbbd d321 d03d
00000020: 5dc6 cc3d 1b21 adbd 0e0e 82bd 1edb 413c
00000030: 6283 3bbd f384 be3b 99fe 1b3d 4c5c d93b
00000040: 4149 cf3c be5f cc3d d417 883d 089b 593d
00000050: fae6 803d c727 5b3d a4f4 c93d 9367 b43d
00000060: 9298 713d 933f 9d3c 86bd 1ebd 8848 29bd
00000070: 16a6 f53c 69ff 36bd e9ec 2d3d 5c8e 9c3d
00000080: 4a39 673d 7b19 e83c cc66 f33c 4c81 4d3d
00000090: e2c5 e9bc 0ecb 783d d417 18bd 01ef 9c3b
000000a0: 4580 ec3c b005 e5bd 8123 a5bb 3bfd 1cbd
000000b0: 19ad bf3d 844c c03d 594f 6dbd 723b 8dbc
000000c0: 0412 32bd 8f73 a83d 49b8 8d3d b1a2 983d
000000d0: 899a c03d fbec b2ba 5924 7d3c 1e3d c83d
000000e0: cd47 72bd 0268 8a3d 8594 c53d 803d be3d
000000f0: 2295 4dbd 41fe 35bd f54b 62bd b702 9f3d
00000100: 06c1 3bbd aa83 bbbd 67cd 4ebd 6059 93bc
00000110: 86f2 2fbc df3b ea3d 9035 b0bc 25bc 4f3d
00000120: e8e5 073d f3b0 27bd c0fb aebc dc31 643c
00000130: 34d0 dc3c 66a3 03bb c566 c0bc 7b2a abbd
00000140: 43ba 3cbd 9676 79bc a41a ba3c e3e4 25bd
00000150: 28de 8a3c 9dad 0f3d 917c c0bc 41cc 733d
00000160: 2ff4 aabd 382f 2bbc 6f48 e83d 8b0d aebd
00000170: 991d 0f3d 511d ac3d 8035 8b3d 1974 14bd
00000180: a3d3 513d de11 d53c 7969 32bd f324 a6bd
00000190: 1422 81bd 28d1 653d e026 9cbd 3460 19bd
000001a0: e418 86bd da30 c93d 2c4d 863c 49bf 813b
000001b0: 8ca3 e53c 9b2d 35bd ee86 88bd ec9e bd3c
000001c0: 2fee 0dbd 4294 0a3d 035e 6abd dbdc 99bc
000001d0: 5db0 f3ba f3c4 a73d 93f4 563d 963e d03d
000001e0: 582b 2abd 6003 8dbd 38cb 8dbd 20c5 8fbd
000001f0: 08a8 15bd c9f2 67bb c820 303c e0db 683c
00000200: 1f56 563d 4fda 41bd 7949 8d3d 331e 32bc
00000210: 5a17 6fbd 7622 34bb 6638 8ebd 4281 c13c
00000220: a03b 0fbd d577 bb3d b017 033d b568 623d
00000230: 901d 133d cba2 d5b9 04b4 873d 5a3e cb3d
00000240: 7a99 39bd 5a51 86bc 820d 593d efc1 94bd
00000250: a149 883d 9cdc 0dbc c7a9 dd3b 9ac6 843b
00000260: 6221 553d 74a5 563d fc56 7f3d 898f 223d
00000270: 27f2 4e3b e864 3a3b 4bb1 96bb 274d 1abc
00000280: b735 b7bd d5e6 a3bd 0219 6e3b aa88 e63b
00000290: 17c0 9d3b 4036 75bd 5c93 d13c 5a46 783d
000002a0: c900 cabc c5fd 1a3d 986e ed3c 1d88 293c
000002b0: 8b3b a3bd b9a5 8b3c b505 f43c cbd2 96bd
000002c0: 53d9 f73c d291 7abd e6c4 9ebd 5b96 6fbc
000002d0: 25c0 6f3d 4201 913d aeb6 03bd c4c5 b1bd
000002e0: ab94 2dbc 2ee8 073d 4f42 38bd 674a 72bd
000002f0: 23b1 9c3d 0596 8dbd 55f8 bb3d 1642 43bd
00000300: 866d 7abd 3cca 90bd a838 683d 96df 463d
00000310: 7653 82bd b15e 92bd 96a9 42bd 1cf4 fdb9
00000320: 5dcd b7bd cd0c a93d 48b2 4bbc 43fb 9fbd
00000330: 401f 433c 98f1 fbbb 8166 2d3d 1741 23bb
00000340: 44a6 4f3d 9751 7abd 03e4 98bc 8f13 24bd
00000350: 72b7 f3bc e972 d2bd 1963 7c3d 2c19 0fbd
00000360: 24be adbc b6cf 96bb 8b9d e2ba b1f2 abbd
00000370: 87b9 f13a a32a ca3d 635b 92bc 220a 893d
00000380: e0df 0a3d 4436 f63c fe13 873b 15a0 4c3c
00000390: 0997 883c 9381 4fbd b5b2 a7bd 4310 f93c
000003a0: c7e0 82bd b019 60bd 67b3 c23c 9905 7c3d
000003b0: c526 653d 22b5 35bd 3089 d03b 8151 613d
000003c0: 411e a0bc 9de0 35bd b91a 51bd 9fa4 8cba
000003d0: 43b3 f0bb b490 77bd 67a9 423d 55ed c53c
000003e0: 09a5 86bd a932 c8bc 4048 35bc b799 803c
000003f0: db84 90bc 60c9 ad3d 41e1 803d 0bf9 cd3d
-0.0464888 0.08122041 0.06671669 -0.0060705757 -0.04726131 -0.056837328 -0.10738347 0.101627015
0.09998772 -0.0845358 -0.06350337 0.011832027 -0.045779593 0.0058141886 0.0380846 0.006633317
0.025303485 0.09979199 0.0664517 0.053126365 0.06294055 0.05350473 0.098611146 0.08808818
0.058983393 0.019195354 -0.038754962 -0.041328937 0.029986423 -0.04467717 0.042462263 0.076443404
0.05645112 0.028332463 0.029712103 0.050172135 -0.02853674 0.060740523 -0.0371321 0.0047892337
0.028869757 -0.111827254 -0.005039633 -0.038327437 0.09359188 0.09389594 -0.057937 -0.01724026
-0.043474212 0.08225166 0.06919915 0.07452906 0.09404475 -0.0013650948 0.0154505605 0.09777282
-0.059150506 0.06758119 0.096474685 0.09289074 -0.050191052 -0.04443193 -0.05524822 0.0776419
-0.04583838 -0.09155972 -0.050488856 -0.017986953 -0.010738974 0.11437201 -0.021509916 0.050716538
0.03317824 -0.040940236 -0.021360278 0.013927903 0.026954748 -0.0020086407 -0.023486504 -0.08357712
-0.04607607 -0.015226027 0.022717781 -0.040501487 0.016951635 0.03507768 -0.023496898 0.059520964
-0.083473556 -0.01044827 0.113419406 -0.08498677 0.034940336 0.08404029 0.06797314 -0.03624353
0.051227223 0.026009496 -0.043557618 -0.08112516 -0.06305328 0.05610767 -0.07624602 -0.037445262
-0.06547716 0.09823771 0.01639422 0.0039595705 0.028032087 -0.044232946 -0.06666361 0.023147069
-0.034650978 0.033832796 -0.057218563 -0.01878207 -0.0018591989 0.08191862 0.052479338 0.10168187
-0.041545242 -0.06885409 -0.069235265 -0.070200205 -0.0365372 -0.0035392514 0.010750003 0.014212579
0.052328225 -0.047327336 0.068987794 -0.010871458 -0.05837188 -0.002748636 -0.06944351 0.023621205
-0.034968972 0.091537155 0.032005012 0.055275638 0.035916865 -0.00040747816 0.06626132 0.09924002
-0.045312382 -0.016396213 0.052991398 -0.072635524 0.066546686 -0.008658554 0.006764624 0.0040519955
0.05203379 0.052403882 0.062338814 0.039687667 0.003157744 0.0028441492 -0.0045987717 -0.009417809
-0.08945792 -0.08003012 0.0036330824 0.0070353346 0.0048141587 -0.05986619 0.025582962 0.060613967
-0.024658578 0.03783967 0.0289834 0.010347393 -0.07970341 0.017046796 0.029787878 -0.07364424
0.030254995 -0.06117422 -0.07752399 -0.01462325 0.058532853 0.07080318 -0.03215664 -0.08680299
-0.010594527 0.03318041 -0.04498511 -0.059152987 0.07650974 -0.069133796 0.09178225 -0.047670446
-0.061139606 -0.07069823 0.056694657 0.048553072 -0.06363575 -0.07146967 -0.04752501 -0.00048437796
-0.08974717 0.08254395 -0.012432642 -0.07811596 0.011909306 -0.0076887123 0.042334083 -0.0024910623
0.050695673 -0.061112966 -0.018663412 -0.040057715 -0.02975056 -0.102758236 0.061617944 -0.034936115
-0.02120883 -0.004602398 -0.0017289383 -0.08395899 0.0018442132 0.098714136 -0.017865842 0.06691386
0.03390491 0.030055173 0.0041222563 0.012489338 0.016673582 -0.05066068 -0.081883825 0.030403262
-0.06390529 -0.054711998 0.023767186 0.061528776 0.055945177 -0.044362195 0.0063640103 0.05500937
-0.019545676 -0.04440366 -0.051050875 -0.0010730213 -0.0073455884 -0.060440734 0.047524836 0.02416102
-0.06574447 -0.02443822 -0.011064589 0.015698297 -0.017641475 0.08485675 0.06292964 0.10057267

rnn.weight_ih_l1 f4 [384, 128]
00000000: 594a d53b f525 b93d 1d0d 73bd 35e5 a53b
00000010: 6549 2d3d 1249 b93d 90c0 79bc 2bcd 52bd
00000020: 1c3a 40bd 436b 673d 73b0 883d 4f74 50bd
00000030: 243f a8bd 5391 2bbc d21e 9abb 84ce aebd
00000040: 88e9 a03c bc01 e33c 224f 593d 68e0 8ebd
00000050: 2e19 99bc 97b7 723d b9e5 acbc 5c84 12bd
00000060: 9ee9 97bd 9ae4 84bd 886d 4e3d 44b8 82bd
00000070: 5e95 8ebd 4b9e 93bd 835e 35bd fb6c ec3c
00000080: 6ab5 81bd 3023 84bd 4178 01bd 1a65 d8bc
00000090: 1c06 ab3d f733 6ebd ca5b 453d 00c4 fb39
000000a0: a7d4 9bbd 94c1 2b3d 41d8 ec3b 336a ecbc
000000b0: a323 943d c377 35bd 2de5 5dbd 28bc 64bd
000000c0: 0efe 8f3d 0e71 8d3c 9d42 af3d 138d 0dbd
000000d0: 2a34 233d 3584 d93c a3fd 1fbd c558 7c3d
000000e0: 4eff 4a3d 5dbb 723c b281 f63c daeb 863c
000000f0: b237 573c 9c2e c5bc 3817 9a3d 0d16 b83b
00000100: a433 4fbc f116 9abd 0c75 39bd 2601 963d
00000110: 1311 87bb 03f0 0ebc 6f2a 94bd 6fb4 a33d
00000120: 35c9 4dbd 045e 7bbd 46fb a3bd c31d 2fbd
00000130: bed3 803d 61a2 b6bc eccc 873d 77d9 c9bd
00000140: 3acc b4bd 8c24 8bbd 866f 98bd bfc7 b63d
00000150: 0aa7 d2bc 8ff8 7c3d 74eb f23c 3dd9 b8bd
00000160: 2e9c df3c 0661 82bc b951 6abc 4595 10bd
00000170: 082b a93d dd6b 43bc 3675 60bd 1831 15bd
00000180: bf21 4e3d 2de5 efbc a21e cd3c a31f a0bd
00000190: a8c0 1f3d b2d6 1bbd e23c 793d d8a9 47bc
000001a0: 5f1b da3d d856 943d 703d 2c3d a464 d53b
000001b0: 25d2 8a3d 9887 723c bc98 df3c b56b 593d
000001c0: 998d 77bc ed78 b0bd 9c63 28bd d25f c83d
000001d0: e94e 02bd a5bc fbba 1418 2b3d 0a2b 11bd
000001e0: 3e6d b0bd 9f61 ce3d 2ef2 433d b3d9 b93d
000001f0: bc67 dc3d de17 023d 796a e7bb 48d5 b4bb
00000200: a0a7 603d dcb0 3c3c 1025 973d bcbb 773d
00000210: cfbd 3c3d 83ea 633d c7c7 78bd cbce 8dbd
00000220: 172d cbbd 63dd 0dbc 03bb b5bb 477d c73d
00000230: 6ed2 bc3c 00b4 32bd b197 ca3d f07f b3bd
00000240: c533 ab3d 56e5 d23d 3273 b83d 0762 523c
00000250: 81ff 94bd 278a 72bd b574 28bd c174 443d
00000260: f158 fabc 85a2 043c 939c 28bd 971b 21bd
00000270: 5d63 5d3d 33e0 bebc bc8b d53c d364 0e3c
00000280: 2f64 82bb 90ff 6c3c e64e 2bbd 1d8b 543d
00000290: 2463 9e3d 1c5e 913c 23f2 ce3c e384 d4ba
000002a0: 5ea7 68bc 8813 133d 4b21 7f3b 50cf 813d
000002b0: 6602 b83c b6bf a9bc 7ccc 8f3c 83ee a23d
000002c0: d8d5 6e3d 27a1 873a eabb a9bd afae cb3b
000002d0: b844 5bbd af49 603d ec54 643d aee5 d1bd
000002e0: 6b36 cf3c a6f6 80bd ad87 2e3d 432e 093d
000002f0: fd72 04bd dd30 93bd 7c5d cb3d 4db3 a23d
00000300: ab48 23bd 17ba 1dbc 4935 a63d 5b67 553d
00000310: 8969 5bbc 1a8b 63bd 8464 6b3c 7d54 40bd
00000320: 0e82 7e3d c1a6 aabd 1717 dcbb 00d1 613d
00000330: 08ff e7bc 0c3e d7ba 70a8 a33d 1789 403c
00000340: df16 9b3d 6691 923d f1f0 c3bd aabd 763c
00000350: 3820 38bd 9366 0b3b 5955 d9bc 1bc9 06bd
00000360: e4a0 293d 5658 28bd 7896 fa3c 943b 9dbd
00000370: a47f 84bd 4338 893d 49fe 43bd ae21 cbbd
00000380: 8911 313d 8cb4 f43c e9ec 19bd aedf 90bd
00000390: e93c 1bbd d044 63bc 2f58 7fbc 449b a53d
000003a0: 496b 25bc 3c2a 3cbd ecf4 d83b 4722 12bd
000003b0: 2c37 a5bd c652 cfbd 253f 3bbd 89c8 af3d
000003c0: fcb4 a2bb 7222 57bc f97f ecbc 07d1 01bd
000003d0: bae6 be3d 4fd9 0bbd 8b38 cc3d 62d7 3b3d
000003e0: aeda b13c 928f f3bc 12a7 6a3c ee74 773c
000003f0: 16c3 aa3c 1f83 b03d c9c3 283d 743d 013d
0.006509107 0.09040443 -0.059338678 0.005062724 0.042306323 0.0904714 -0.015243664 -0.051465195
-0.046930417 0.056498777 0.0667428 -0.05089217 -0.08215168 -0.01047166 -0.004703381 -0.085354835
0.019642606 0.027710788 0.053053983 -0.06976396 -0.018688764 0.059257116 -0.021105634 -0.03577076
-0.07417606 -0.06488915 0.050397426 -0.06382802 -0.06962083 -0.07207926 -0.044279587 0.02886056
-0.0633343 -0.06452024 -0.031608824 -0.026415396 0.08350775 -0.058155026 0.04818324 0.00048020482
-0.076089196 0.041932657 0.007227928 -0.028859233 0.0723336 -0.044303667 -0.054173637 -0.055843502
0.07030879 0.017265823 0.08557627 -0.034558367 0.03984467 0.026552299 -0.039060246 0.061608095
0.049559884 0.014815179 0.03009114 0.016469885 0.013135837 -0.024070077 0.0752396 0.005617863
-0.012646589 -0.07523907 -0.04527764 0.07324438 -0.0041219085 -0.008724215 -0.07234656 0.07993399
-0.050240714 -0.061368957 -0.08006911 -0.042752992 0.062903866 -0.022294225 0.066308826 -0.09855931
-0.088280156 -0.0679408 -0.074431464 0.08924817 -0.025714416 0.06176048 0.029653288 -0.0902581
0.027296152 -0.015915405 -0.014301711 -0.035298605 0.08260161 -0.011927572 -0.05479928 -0.036423773
0.05032515 -0.029284084 0.02503902 -0.07818534 0.03900209 -0.038046546 0.060849078 -0.01218649
0.10649752 0.07243127 0.04205078 0.0065122414 0.06778363 0.014802836 0.02729451 0.053081233
-0.015109443 -0.08616815 -0.04111062 0.09783901 -0.031813536 -0.0019206001 0.04177101 -0.035441436
-0.08614586 0.100772135 0.047838382 0.09074726 0.10761973 0.031761043 -0.007062253 -0.005518589
0.05484736 0.011516776 0.07380116 0.06048177 0.046079453 0.05564357 -0.060737398 -0.06924208
-0.099207096 -0.00865874 -0.005545975 0.09740692 0.02304956 -0.043628693 0.09892214 -0.087646365
0.08359484 0.102976486 0.09006347 0.012840754 -0.07275296 -0.059213784 -0.041126925 0.047962908
-0.030559989 0.008095388 -0.041164946 -0.039332952 0.05404984 -0.023300266 0.026067607 0.008691031
-0.003979228 0.014465228 -0.04182329 0.05189048 0.07733753 0.01774507 0.025261944 -0.001621392
-0.01420006 0.0359073 0.0038929756 0.0633837 0.022462081 -0.020721298 0.01755356 0.07955649
0.058309406 0.001034771 -0.08287795 0.0062158923 -0.053532332 0.05475777 0.05574505 -0.10248886
0.025294503 -0.062970445 0.04260986 0.033491384 -0.032336224 -0.07187054 0.0992994 0.07944355
-0.039864223 -0.009626887 0.08115632 0.05210052 -0.013391861 -0.05555258 0.0143672265 -0.046955574
0.06213575 -0.08332587 -0.0067166197 0.05513096 -0.02831985 -0.001642169 0.07991111 0.011751435
0.07572722 0.07156639 -0.0956744 0.015059868 -0.0449526 0.0021270856 -0.026529955 -0.032906633
0.041413203 -0.04109987 0.030589327 -0.07677379 -0.06469658 0.06700184 -0.047849927 -0.09918533
0.043229613 0.029871248 -0.03757945 -0.070739135 -0.037899885 -0.013871387 -0.015584989 0.08086255
-0.01009638 -0.045938715 0.006620994 -0.03567722 -0.08067164 -0.1012321 -0.045714516 0.08583171
-0.0049654227 -0.013130771 -0.028869616 -0.031693485 0.09321351 -0.03414279 0.09971722 0.045859702
0.02171072 -0.029731546 0.014322059 0.015103562 0.020844977 0.08618759 0.04120234 0.031552747

rnn.weight_hh_l1 f4 [384, 128]
00000000: 80b6 acbb 6038 603c 121d eebc 086e 14bc
00000010: 5874 27bc 58ec 91bc b87c b1bd e6c3 6f3d
00000020: 8608 2d3d ee67 57bd 669d 26bd e40c 98bd
00000030: b82e b73c 1c74 fd3c a651 78bd e80f 713c
00000040: 188c acbd cd69 07bd 7af4 2a3d c319 973d
00000050: 357a 90bd b805 48bc 4fae 923d 139e 13bd
00000060: 02ba 333d b7c8 9f3d d099 52bc 288e 05bc
00000070: 0070 a537 8479 bc3c d29a 0f3d a046 593b
00000080: d6d0 95bd 0087 f1bb f85c a3bd 589c 103d
00000090: 2c28 f73c 806d 723a 3216 5c3d d2b4 3dbd
000000a0: 7955 b03d d05c c93b 0935 43bd 21aa b43d
000000b0: a08f 2bbc 8e9b 483d 880d bbbc 2c4e 83bc
000000c0: 80f0 fc3c 8065 22ba 242d 843c 606c 8ebd
000000d0: e12d a3bd e05e aa3c bcb3 29bd e576 953d
000000e0: 1e37 01bd e3e1 31bd 414b 8c3d cfb3 a33d
000000f0: f08a 9cbb 05f9 823d 1d2c 79bd 3a77 153d
00000100: 3be3 9b3d 9fca a4bd 1c55 e83c c64f 7d3d
00000110: b845 0b3d 1e42 81bd f8e7 9cbd cab6 1bbd
00000120: 8cca b53c 1867 d03c 3e7a 413d bef1 4a3d
00000130: 6ea2 6c3d 31ee 10bd 39ca a13d 225c 143d
00000140: d00c eb3b 6cba 4cbd 93da 853d 4def 0fbd
00000150: 3a9e fabc d84d 48bc 201d 0c3c da7e 94bd
00000160: a504 47bd 32b0 a5bd 585a 683c e097 76bb
00000170: 3f35 903d bb4b 9a3d edbd 28bd 203b 25bd
00000180: 27f4 a23d 2d9f 9c3d 64de de3c 3e3e 12bd
00000190: abaf b43d 92d5 00bd 20bb 633b c6d2 163d
000001a0: 97ea a5bd a0df c13c d876 5b3c 2092 56bc
000001b0: 4425 5fbd a92b b03d 3cd4 adbd 80bf f43b
000001c0: 608a 9bbc db33 88bd 78a8 71bc 9821 c43c
000001d0: 2f09 24bd f021 80bc b94a 3dbd 24cf aabd
000001e0: 5196 76bd c616 4ebd 3a7f 6c3d 7dca b43d
000001f0: 80bd 56bb 904e 0f3d f5db 00bd ff65 a23d
00000200: 1ed6 8ebd 8064 e93b 809a 94bb 3729 a0bd
00000210: 16e4 703d cfca 50bd 5880 2abd bf9c 4abd
00000220: 7691 e0bc 9305 51bd 925c 4a3d 5e86 d7bc
00000230: c89d b23c e2be 7f3d aff7 aebd 00ff 8fb9
00000240: a049 2dbd 16b8 3f3d be7f 9dbd b143 83bd
00000250: 0616 acbd b9e5 37bd 4c11 d8bc e9ea 973d
00000260: e485 af3c 821b 333d f3c3 a0bd a6f0 a7bd
00000270: 78a1 e63c 125f 0bbd 0413 ed3c cd77 4ebd
00000280: 7678 553d fc7c 9b3c 1e09 17bd 6adc 62bd
00000290: 0175 61bd 489b 433c 6e71 8bbd b7b4 883d
000002a0: 00da 833c 8054 9aba a795 74bd d2de 86bd
000002b0: 10fe 35bd 7a28 5e3d 252e 3abd 643a a2bc
000002c0: 0a34 653d b885 7cbc 505f 53bd a08e 3ebb
000002d0: b148 b4bd a0b5 ffbc aa48 4f3d 2b2b 8a3d
000002e0: 9db2 54bd 6a9b 6d3d 29ef 843d 1a6f 44bd
000002f0: 500c e1bb e044 123b 0047 2aba b9ec a03d
00000300: 3c9b 94bd e510 af3d e775 b13d 6049 48bb
00000310: d032 35bc 590e 10bd 7853 82bc 7288 173d
00000320: 6a18 6b3d 160a 413d 3555 9d3d 5c50 9fbd
00000330: 104f 6abc a357 823d a26e 113d c7dc 5ebd
00000340: f07a 90bc 0e29 473d 7cb9 85bc 748a ff3c
00000350: 6899 debc cfd2 abbd 4ca4 e63c 5081 dfbc
00000360: d24b 8fbd ac73 36bd 0095 a4ba 0153 03bd
00000370: f291 253d 28ab 143d 440c ecbc a2cc 4d3d
00000380: 6e37 363d bcc4 b4bd 6ec9 2b3d 2781 29bd
00000390: fd20 853d e6a5 6d3d 4022 da3c 7c2b dcbc
000003a0: 4036 903c 7783 6abd e06c d1bc 5c79 813c
000003b0: c435 82bc 46ba 01bd 7688 4a3d 9167 9ebd
000003c0: 7e0d 093d 472d 923d 5af5 563d 28f8 aabc
000003d0: 1a3b 17bd 881f a43c f94b 9e3d 11ea ae3d
000003e0: 20df 6abd 7814 fc3c 83d4 9a3d 7429 b5bc
000003f0: 424f fdbc 7e69 643d 645b 87bd 978d 943d
-0.005270779 0.013685316 -0.029066596 -0.009059437 -0.01022061 -0.017812893 -0.08666366 0.058536433
0.042244457 -0.05258935 -0.04067745 -0.07424334 0.022361144 0.030939154 -0.06062474 0.014713265
-0.08425158 -0.033059884 0.041737057 0.073779605 -0.07054559 -0.012208395 0.07162153 -0.036039423
0.043878563 0.07801955 -0.012854055 -0.0081515685 1.9721687e-05 0.023007162 0.035059758 0.0033153668
-0.07315223 -0.0073708296 -0.07976717 0.03530535 0.030170523 0.0009247884 0.053732105 -0.04631502
0.086100526 0.0061450973 -0.047658 0.08821512 -0.010471255 0.048976474 -0.0228336 -0.016028486
0.030876398 -0.0006194934 0.016134806 -0.06954265 -0.07967735 0.020797193 -0.041431174 0.07298068
-0.031546704 -0.043428313 0.06850291 0.0799328 -0.004777305 0.06395153 -0.060833085 0.036490656
0.076117 -0.080464594 0.028360896 0.061843656 0.034002036 -0.06311439 -0.07661432 -0.038016118
0.022191308 0.025439784 0.04723572 0.04954695 0.057772093 -0.035383407 0.07899899 0.036220677
0.007173158 -0.049982473 0.0653583 -0.035140324 -0.030593026 -0.012225591 0.008551866 -0.072507575
-0.048588414 -0.08090247 0.014181696 -0.0037627146 0.07041406 0.07533976 -0.041196752 -0.04033959
0.079567246 0.07647548 0.027205653 -0.03570389 0.088225685 -0.031453677 0.0034748986 0.036822103
-0.08101385 0.023666203 0.013395034 -0.013096362 -0.0544789 0.086020775 -0.08487746 0.0074691176
-0.01898688 -0.06650516 -0.014749639 0.0239418 -0.04004782 -0.015641183 -0.04621384 -0.0834029
-0.060201947 -0.050314687 0.05773852 0.08827684 -0.003276676 0.034987032 -0.031459767 0.079296105
-0.06974433 0.0071225762 -0.0045350194 -0.07820361 0.05881127 -0.050974663 -0.041626304 -0.04946589
-0.027413111 -0.051030707 0.04940469 -0.026309188 0.021803752 0.0624379 -0.08543336 -0.00027465075
-0.042306542 0.046806417 -0.076903805 -0.064093955 -0.08402638 -0.044896815 -0.026375435 0.074178524
0.021426149 0.043727405 -0.07849874 -0.08200197 0.028153166 -0.034026213 0.028939731 -0.05040722
0.052116834 0.018980496 -0.03687393 -0.055385984 -0.055043224 0.011938877 -0.06808744 0.066750936
0.016095161 -0.001177445 -0.059713032 -0.06585468 -0.044431746 0.05423782 -0.045454163 -0.019803233
0.05595783 -0.01541274 -0.05160457 -0.002907671 -0.08802927 -0.031214535 0.050606407 0.06746515
-0.05192815 0.058009543 0.06490929 -0.047957517 -0.006867923 0.0022318885 -0.0006495565 0.07857651
-0.07256171 0.08548144 0.08665066 -0.0030561313 -0.011059478 -0.035169933 -0.015908942 0.03699536
0.05739633 0.04712876 0.076822676 -0.07778999 -0.0143010765 0.06364372 0.0355059 -0.05440977
-0.017636746 0.048623137 -0.016323797 0.03119395 -0.02717276 -0.08389818 0.028154515 -0.02728334
-0.069968835 -0.044543907 -0.0012556612 -0.03206158 0.040422387 0.03629604 -0.028814442 0.05024398
0.044486456 -0.088265866 0.041940145 -0.041382935 0.06500433 0.05801954 0.02662766 -0.026876204
0.017603993 -0.05725428 -0.025564611 0.015804939 -0.015894778 -0.031671785 0.049446546 -0.077345975
0.033460133 0.07137542 0.05248008 -0.020870283 -0.036921598 0.020034567 0.077293344 0.085407384
-0.057341695 0.030771479 0.07560065 -0.022114493 -0.030921582 0.055764668 -0.06609228 0.072535686

rnn.bias_ih_l1 f4 [384]
00000000: a329 fd3c 9d49 31bc d6bf cc3c 4b95 223d
00000010: f88f bd3c 6ac8 90bd 5efc 78bb 3d65 553d
00000020: 17b9 cf3d 307e 843d eed3 ecbc 30b5 c6bd
00000030: 4a71 c53d 6920 adbc d02b 43bd 8beb b23d
00000040: abcd 023d ee82 a1bd d988 e53c 796b 30bb
00000050: 2228 05bd 140c bd3c d56f ed3c ee23 6dbd
00000060: 7ece c73d a554 a53d 4bd7 953d c5c5 5dbd
00000070: d121 00bd c746 1f3d bc53 86bd c13a 5ebd
00000080: 0582 dd3c 75a6 d03d c7ee 673d b3b7 6d3d
00000090: b1ab b83d af49 b23d 87a9 803d 5ee3 3a3d
000000a0: 6ca8 2cbc 296e 113d 3c36 5f3d 4e38 963d
000000b0: 74ba a9bd c1e5 49bd a043 2e3d 2585 18bc
000000c0: 0a0e a5bd 8ed5 923d 39ba 93bd b3d6 92bd
000000d0: b965 ab39 1083 2bbc 0cf7 d9bc 3833 12bd
000000e0: 7d99 9ebd 860d 49bc f9da f3bb d3ba 89bd
000000f0: a799 0c3d cbdf aabd 5754 693d 8133 9e3c
00000100: 2aaa 533d 7760 fcbc f5ab f4bc b0af 7dbc
00000110: 8fc7 8ebd 1952 963d a187 a63d 454b 7f3d
00000120: 695b 7a3b 13d4 ff3c 31fe c13b d670 ecbc
00000130: 5abe 283c 03df 5abd 71fd 913c 568a d53c
00000140: 5a1a 303d 1625 633d 85fe 41bd b17b 4b3d
00000150: 86a4 49bd 9be4 753c 8535 b8bb 0caa 15bd
00000160: a9a0 0ebd 4f9c c3bd a227 c23d fc7f b6bd
00000170: 3bcb 4a3d 367d 38bd a515 fdbc 4e14 2bbd
00000180: 5cd2 c13d 973e 803d a798 5cbd bb00 943d
00000190: dea2 233d 1942 823d b00b 80bd 5d9d ecbc
000001a0: 26f2 99bd 0926 59bd 648c a43c 63d9 853d
000001b0: 07bf febc a5e7 83bd 8701 a9bd 1adf 96bd
000001c0: 391f a53d a427 b63d 5567 2b3d e502 b6bc
000001d0: b30f 13bd 64eb 193d 67bf b6bd 8cd8 8b3d
000001e0: ed17 ab3c 5aa4 ba3d d249 1bbd 530e 6f3c
000001f0: 36f2 92bc 3bfd 33bd 7f50 cbbc ff9d 06bd
00000200: 5c17 583c 2fe0 853c 9959 7bbc 049d 9d3d
00000210: 09f9 0bbd 2f8b d4bc 37bc bf3d 5773 ca3d
00000220: a4aa 4c3d 15d4 2e3d 6436 5dbd 04a7 493d
00000230: 0e18 233d 8e46 883d 4383 8ebd 9b42 86bd
00000240: a9fc 08bd 3edc 58bd 9b69 a23c bfd4 d93d
00000250: 71d1 f13c cb17 e03c 3453 843c 4f21 8bbb
00000260: 4331 85bc b044 973d 0397 ed3b 4a15 7f3d
00000270: ead0 0bbd ab6b adbd d8fd 06bd 9ef2 013d
00000280: 0691 943d 47be adbd 5d73 91bd 3e17 da3d
00000290: f1ea bbbd 3062 653d 2da1 9e3d f3e3 9ebd
000002a0: 7cb6 9dbd 0963 2b3d 7e54 a83d 42d3 883d
000002b0: 9d27 46bd ef31 66bc ad34 7d3d 154c adbd
000002c0: a3f2 b2bd 2baa 7bbd 4201 42bc 7c82 14bd
000002d0: 3046 3c3d bf9b edbc 1a25 b0bd 27d6 2f3b
000002e0: 2c91 c5bd e6fb ca3b 4e6a 7d3d 41d7 ffbc
000002f0: 175e b63d 1be7 b03d 730a 55bd da62 8dbd
00000300: 33e4 843d 6f3f 03bd 11f7 993d 0abc 82bd
00000310: 2a41 a13d 9c8f 62bd 395c 1b3d 1d25 413c
00000320: c457 dabb 0713 c13d 217b 353d be56 123d
00000330: 3e7f 31bd 93dc 693a 92a6 1ebd 70cc 12bd
00000340: 1a95 b83c 2d24 40bd c9da e6bc f745 633d
00000350: eaf8 aa3c 0dff 063d d9ed aabd 6d0c fbbc
00000360: 1c44 1c3d d137 b63b e0da fe3c 37e9 fc3b
00000370: f59e 803d 9ff8 2bbd 9ecd 743d f47f c23d
00000380: fd9a 3bbd 7f85 b8bc 99ba 17bd a4ee 933d
00000390: aa51 e23c 59e5 063c e146 a4bd b864 86bd
000003a0: f922 acbc 860c 743c 9bfd 8fbc f43e 8dbd
000003b0: c3e0 84bd 1123 c8bb 225f 1ebd 71c1 e5bc
000003c0: 12df ba3c 941e bfbc 1242 95bd 8702 f63c
000003d0: 2e4f 9cbd b38b bc3c c9f8 65bc 29b7 513d
000003e0: 4420 493d 875a 9cbc af34 173c 5c5d 39bc
000003f0: a5de 5f3d e36f 84bd 15ce 54bc 7a85 b33d
0.030903643 -0.010820773 0.024993818 0.039693158 0.023139939 -0.07069476 -0.003799222 0.0520985
0.10142725 0.06469381 -0.02890965 -0.097025275 0.09640749 -0.021133618 -0.047649205 0.087363325
0.03193442 -0.07886301 0.028019356 -0.0026919527 -0.032508977 0.023077048 0.02898399 -0.057895593
0.09756182 0.08072785 0.073164545 -0.054143686 -0.03128225 0.038885858 -0.0655894 -0.05425525
0.027039537 0.10187999 0.0566242 0.058036517 0.090171225 0.0870546 0.06282335 0.04562699
-0.010538202 0.035505448 0.05449508 0.07334958 -0.08287516 -0.049291376 0.04254496 -0.009309088
-0.08059318 0.071696386 -0.072132535 -0.07169857 0.0003269145 -0.010468259 -0.026607059 -0.035693377
-0.07744119 -0.012271291 -0.007441875 -0.06725087 0.03432622 -0.08343466 0.0569652 0.019311668
0.051675953 -0.030807717 -0.029867152 -0.015483782 -0.069716565 0.07339878 0.08131338 0.062327642
0.0038201457 0.031229055 0.0059201946 -0.028862398 0.01029929 -0.053435337 0.017821046 0.02606694
0.04299388 0.05545529 -0.04736187 0.04967851 -0.049229167 0.015008117 -0.0056216144 -0.036539122
-0.034821186 -0.09551298 0.094802156 -0.0891113 0.049510222 -0.045041285 -0.03089411 -0.04176741
0.09463951 0.06261938 -0.053856518 0.07226702 0.039950244 0.063602634 -0.06252229 -0.02888363
-0.07516889 -0.05301479 0.020086475 0.06535604 -0.031096948 -0.06440667 -0.082522444 -0.07366772
0.08062596 0.088942796 0.041846592 -0.022218177 -0.035903644 0.037578 -0.08923226 0.068284124
0.020885432 0.09113379 -0.037912197 0.0145908175 -0.01793776 -0.04394267 -0.024818657 -0.03286552
0.013189163 0.01634225 -0.015341186 0.07695964 -0.034173045 -0.025945274 0.09362071 0.098852806
0.049967423 0.042682726 -0.05400695 0.049231544 0.039817862 0.06654082 -0.0695863 -0.06555673
-0.03344408 -0.052944414 0.019825747 0.10636281 0.029518815 0.027355095 0.016152956 -0.004245914
-0.016258841 0.07386148 0.007250668 0.062276162 -0.034134783 -0.08467802 -0.032956928 0.03172552
0.072542235 -0.08483558 -0.07102082 0.10648964 -0.09175671 0.056001842 0.077455856 -0.077583216
-0.07700822 0.041842494 0.082192406 0.06680919 -0.048377622 -0.014049991 0.061817814 -0.08461777
-0.087376855 -0.06144158 -0.01184112 -0.036257252 0.045965374 -0.02900493 -0.086008266 0.0026830526
-0.0964683 0.0061945794 0.06186896 -0.03123057 0.08904665 0.0863783 -0.05201192 -0.0690362
0.06488838 -0.032042917 0.07517827 -0.06383522 0.07873757 -0.055312738 0.037929747 0.011788634
-0.0066632945 0.09427457 0.044306878 0.035727255 -0.04333424 0.0008921113 -0.038733073 -0.035839498
0.022532035 -0.0469095 -0.028180497 0.055486646 0.020870645 0.03295808 -0.08346147 -0.030645574
0.03815089 0.005560853 0.031110227 0.007718231 0.06280319 -0.04198515 0.059766404 0.09497061
-0.045802105 -0.022524593 -0.037043188 0.072232515 0.027626831 0.008233392 -0.080213316 -0.06562179
-0.02101277 0.014895564 -0.017576983 -0.06896773 -0.064881824 -0.006107696 -0.038664944 -0.028046342
0.022811446 -0.02333001 -0.072879925 0.030030502 -0.0763229 0.023015833 -0.014036366 0.051200066
0.049103037 -0.019086136 0.009228869 -0.0113137625 0.05465569 -0.06466653 -0.012988587 0.08765693
